checkpoints/generative_models/MNIST_cVAE.pth (torch, 93976 bytes, 29 tensors)

encoder.0.weight f4 [8, 1, 3, 3]
000000 d3 7b 90 3d 3a 52 54 3e 7b 1c 44 3e c7 9b b4 3d
       0.070548676 0.20734492 0.1915149 0.08818775
000010 ac 5c a0 3e 97 0a 75 3e 6c b9 39 be fd a1 10 3b
       0.31320703 0.23929821 -0.18137139 0.0022069209
000020 8a 8f c4 3c cb ad dd be 7d 8e 81 be cb 0f 1d be
       0.023994226 -0.43296656 -0.25304022 -0.15338056
000030 ae 91 5d bd 5a 75 1f be bc 00 95 bd 07 4e d1 bd
       -0.05409401 -0.1557211 -0.07275531 -0.10219961
000040 05 d0 8e be 9b 21 98 3d d1 81 31 bd 10 45 25 3e
       -0.2789308 0.07428285 -0.043336693 0.16139627
000050 96 bd 6b 3e 66 4d 9c be 51 4a 96 be 10 d3 14 be
       0.2302154 -0.305278 -0.29353574 -0.14533639
000060 1c 50 6f be 94 c4 0d be 33 e2 a9 3d a2 1f 43 be
       -0.23370403 -0.1384452 0.08295097 -0.19055036
000070 d4 0e 33 3d 6b 11 9d be cc 26 6a be ca a3 43 3e
       0.043715313 -0.3067735 -0.22866362 0.1910545
000080 56 ec 13 be e1 d7 a9 3b bc 37 d2 3e 7c 25 59 b8
       -0.14445624 0.0051832055 0.41058147 -5.177174e-05
000090 fe e6 fb bd 07 f3 c0 bd ed 41 0c be 89 a5 d7 be
       -0.12299918 -0.09421354 -0.13697024 -0.4211848
0000a0 33 49 b4 bd 59 f9 8d be be 2c b3 be dc 56 14 be
       -0.08803024 -0.277293 -0.34995073 -0.14486259
0000b0 c7 bc 1c bf d9 e9 07 be 95 da dc be e1 84 0b bf
       -0.6122555 -0.132728 -0.43135515 -0.5449963
0000c0 ee cf b6 3e 61 3c 66 3e d6 e9 58 be 48 23 22 3e
       0.35705513 0.2248397 -0.21182951 0.15833771
0000d0 d1 34 be 3e 02 fd e8 3d 4c 39 6f 3e 71 b5 18 be
       0.3714967 0.113763824 0.23361701 -0.14912964
0000e0 b7 8b b9 be 15 fb f6 3d 62 cd f4 bd fc 43 65 be
       -0.36239406 0.12059609 -0.11953236 -0.22389215
0000f0 d3 0f d5 3d e8 26 3e be 15 b5 97 be 60 9c d7 3d
       0.10403409 -0.18569529 -0.29630342 0.10527873
000100 56 76 03 3e a3 b8 16 be ca 33 88 be 40 6f a3 bc
       0.1283811 -0.14718871 -0.26602012 -0.01995051
000110 36 94 47 be 6b 2f 44 be ab 15 8a bb 78 40 18 be
       -0.19490132 -0.19158714 -0.004214009 -0.14868343

encoder.0.bias f4 [8]
000000 8c 10 c2 3f f6 b1 16 3f 07 f9 80 3f a0 dd d7 3e
       1.51613 0.58865297 1.0075997 0.42161274
000010 c3 64 5e 3f b5 20 c9 bc 9f a4 ca 3f 2a 5f 91 be
       0.868725 -0.024551729 1.5831488 -0.28392917

encoder.2.weight f4 [16, 8, 3, 3]
000000 07 bd 8c 3e b3 31 e9 3d ab 71 a1 be 95 5e 30 3f
       0.27487966 0.113864325 -0.31532034 0.6889432
000010 8b 5d e6 3e 58 35 12 3e 5f 0e 67 3f 80 52 12 3f
       0.44993243 0.14278162 0.90256304 0.57157135
000020 fd 9d dd 3e 55 1a 5a 3e 0d 38 89 bd 76 56 98 3d
       0.43284598 0.21299107 -0.06700144 0.07438366
000030 01 ed 4c 3e d7 8d e3 be 2f 77 f7 be d9 f4 26 be
       0.20012285 -0.44444153 -0.48333117 -0.1630434
000040 ef b9 b4 be 12 61 4d be 75 26 b5 3e 51 63 72 be
       -0.35298106 -0.2005656 0.35380903 -0.23670699
000050 d1 d6 39 be 0a 5f 34 3e ff b3 26 bf 7f 37 02 be
       -0.18148352 0.1761438 -0.651184 -0.12716483
000060 d5 7c 47 3e c1 6a f5 be 43 65 78 bc e8 02 7f 3c
       0.19481213 -0.4793301 -0.015160861 0.015564658
000070 0f 2b 19 3f 1c 69 d2 3e 17 b0 2f 3d d1 d4 03 3f
       0.5983133 0.41095817 0.04289254 0.5149661
000080 1a e7 1c 3f 3f 06 6c bd 06 9f 05 3e 74 8c f5 ba
       0.61290133 -0.057623144 0.13048944 -0.0018733875
000090 95 80 d6 bd 7a 8e 1a bf 9f 12 88 be 4e 68 a7 be
       -0.10473744 -0.6037365 -0.26576707 -0.32696766
0000a0 7b 2e 02 bf 60 3f ac 3d 64 a9 1c be ab 17 94 be
       -0.50852174 0.08410525 -0.15298992 -0.28924307
0000b0 f7 54 6d 3e 4d 94 b6 3e 13 22 05 bc f5 6b a6 bd
       0.23176943 0.3566002 -0.0081258 -0.0812606
0000c0 b2 cd 99 3e af 4c 68 3e c7 52 25 3c 63 2e e7 3e
       0.30039746 0.22685502 0.010090536 0.45152578
0000d0 e6 3f cf 3e 64 37 b4 3e ca 72 8f 3e 3e 7e 85 3e
       0.40478438 0.3519851 0.28017265 0.26072878
0000e0 39 de 36 3e 82 17 ea 3d 03 af 2d bf 72 3b 95 be
       0.17858209 0.11430265 -0.6784517 -0.29146916
0000f0 0d 11 50 3e fa b4 a9 be 85 b0 c3 bd 1d 0f 27 bc
       0.20319004 -0.33145887 -0.09555153 -0.010196474
000100 ce 37 fb bc 62 1c 82 bb 81 44 7b 3c ae e1 78 3c
       -0.030666258 -0.0039706687 0.015336157 0.015190525
000110 bc 4d e4 bd e4 bc 98 3d 62 dd da 3d d4 f2 c5 bd
       -0.11147639 0.07457903 0.10686757 -0.096654564
000120 cb 5b 2d be ef 41 3d be f8 80 b6 bd fe 07 3e be
       -0.16929547 -0.18482183 -0.089113176 -0.18557736
000130 26 19 46 bf 69 a1 2b bf a2 16 00 3c 59 e7 61 3e
       -0.77382123 -0.6704317 0.007817896 0.22060908
000140 7f f4 51 bf 68 8d a7 be f3 74 13 3f f3 26 7b be
       -0.82013696 -0.32725072 0.57600325 -0.24526577
000150 1e 05 00 3e c3 1c f7 bd d2 0c 5f 3f fe a4 47 bb
       0.12501952 -0.12066033 0.8712894 -0.0030463333
000160 65 61 d8 bc f8 c5 00 3e 38 cb 0c 3f 21 76 b8 3b
       -0.026413629 0.12575519 0.5499759 0.0056293164
000170 c8 73 ae 3d 0f b3 05 be 67 0d 7f 3c 35 4a 0b 3e
       0.08518177 -0.13056587 0.01556716 0.13602526
000180 d3 99 0e bf 32 be e4 3d 37 38 b8 be b6 27 42 be
       -0.5570347 0.111690894 -0.3598039 -0.18960461
000190 e4 69 e0 3d ab e6 0d 3f b6 3f c3 be c5 aa 93 3d
       0.10957697 0.55430096 -0.38134545 0.07210306
0001a0 75 a5 cc be 3a 71 6a be 62 ae e4 be 79 76 80 bf
       -0.39969984 -0.22894755 -0.44664294 -1.0036155
0001b0 78 a3 ef bc f1 46 a8 3d f3 7f 1e 3e 57 3f 0f be
       -0.029252753 0.08216656 0.15478496 -0.13989006
0001c0 fa 72 16 3e 18 dc 79 3d b8 50 71 3c 29 6f 06 3f
       0.14692298 0.061000913 0.0147287175 0.52513367
0001d0 43 d8 b3 3f 1e 6d 6c 3e d7 7e 47 3f b6 c1 e6 3e
       1.4050373 0.230885 0.7792792 0.45069665
0001e0 28 52 b7 3e d8 20 31 3e 9f 42 a8 bf 79 03 81 3e
       0.35804868 0.17297685 -1.3145331 0.25197962
0001f0 de 91 c8 3e 51 3d a2 3f 62 29 c6 3e 24 c3 0f be
       0.39173788 1.2674962 0.38703448 -0.14039284
000200 60 e7 c8 3e 7e b5 1d 3f 36 19 98 3e 19 84 67 3f
       0.39239025 0.6160506 0.29706734 0.9043594
000210 ac 99 9d 3e 49 da 28 3f 49 24 d0 3f 0f c9 c4 3c
       0.30781305 0.65958077 1.6261073 0.024021653
000220 23 9d ac bd 14 53 a7 3d 3d 12 db bd 52 bf 3e bc
       -0.08428409 0.08170143 -0.10696838 -0.011642294
000230 87 04 67 bb df 55 f1 3d 2e 05 e0 3d 73 25 90 bd
       -0.0035250501 0.11783957 0.10938488 -0.07038393
000240 9d 16 8e 3d ab da 76 be 02 8a 82 bc 92 63 c0 3d
       0.06937907 -0.24106853 -0.015934948 0.093939915
000250 b5 50 a7 3d 50 75 46 bd 9f e2 f4 3e ec 46 0b bf
       0.081696905 -0.04845172 0.47829148 -0.54405093
000260 0c f1 19 bf bd 0d 1f be f9 5b 0e 3e ec f4 a7 3d
       -0.60133433 -0.15532584 0.13902272 0.08201012
000270 e0 68 f6 3e d5 b7 b8 3e ee 25 dd bd 70 1a 22 3f
       0.48126888 0.36077753 -0.1079825 0.6332159
000280 c2 7d 9a 3e 9a a9 bd 3e 38 f3 fc 3d 60 2b 87 be
       0.3017407 0.37043458 0.12351078 -0.2640028
000290 fe e2 15 be d0 8c 4b 3f bd 4c 39 3e a2 fa 73 3e
       -0.14637372 0.7951174 0.1809568 0.23826078
0002a0 63 cc ca 3f 22 72 6c bd 32 16 9c bd 12 23 31 bf
       1.5843624 -0.057726033 -0.07621421 -0.6919414
0002b0 da 8d 43 3d 3d 35 9d 3d e2 c9 ab bd 11 b2 1b bf
       0.047742702 0.0767617 -0.083881155 -0.6081858
0002c0 0a 01 29 be 93 3f 71 3f 85 2b e3 3e fc 8d 26 3f
       -0.16504303 0.9423763 0.4436914 0.650604
0002d0 be 40 a8 3d 31 10 fe 3d 68 8d 2c be 15 cb 51 3f
       0.082154736 0.12405432 -0.16850817 0.81950504
0002e0 47 5f a6 3d 87 f4 1f 3e d3 90 e0 3e cf 87 18 be
       0.081236415 0.15620624 0.43860492 -0.14895557
0002f0 7b cb 7f bd b4 1c 14 bf 8a 39 48 bf 03 ac 10 be
       -0.062449913 -0.578563 -0.782128 -0.14128117
000300 f8 47 f5 be ee f5 12 c0 52 67 bf 3e 27 66 44 3e
       -0.4790647 -2.2962604 0.37383515 0.19179593
000310 71 ff c1 bd ed f7 87 3d 4d 6e 26 3f b7 7a 48 3d
       -0.0947255 0.06639085 0.65012056 0.048945155
000320 77 e2 4a be 33 93 3c 3f c9 ef bb 3d aa f0 d3 3e
       -0.19812952 0.7366211 0.09176595 0.4139455
000330 c2 b1 9e 3e 63 37 31 be 02 18 09 bf 45 c9 c0 bd
       0.30994993 -0.17306285 -0.5355226 -0.09413389
000340 0b eb 13 bc 76 b7 47 3d 60 da d0 3d 86 29 a5 bd
       -0.009028207 0.048758946 0.10197902 -0.080645606
000350 6c d1 8b bc ef e8 c0 bd ca 85 98 3c 9e 55 ef bd
       -0.017067634 -0.094194286 0.018618483 -0.11686252
000360 e8 b8 32 3e b0 da 83 be e9 b7 c3 be 4c 1b 27 3e
       0.17453349 -0.25752783 -0.3822625 0.16319007
000370 db 64 95 be 25 be e5 be d2 f2 63 3e 65 7e 65 3d
       -0.2917851 -0.4487163 0.22260597 0.056028742
000380 01 df 06 bf c9 c0 a7 3e 1a 5f 41 3d 07 c5 0d 3f
       -0.52684027 0.3276427 0.047209837 0.55378765
000390 01 e0 1a 3d 18 14 58 3e 2f 59 eb 3e 6a 80 9b bd
       0.037811283 0.21101415 0.4596648 -0.075928524
0003a0 5d 9e d4 3d d5 57 fb 3e 17 cd 74 bd 51 69 fd bd
       0.10381768 0.49090448 -0.0597659 -0.12373603
0003b0 52 a0 4c be 99 7b a0 bd c7 fb 17 3d f0 39 f5 3e
       -0.19983032 -0.078360744 0.037105348 0.47895765
0003c0 59 0a bb be 85 ec 77 3e 93 dd 51 be fd 95 e4 3e
       -0.36531332 0.24211319 -0.2049468 0.44645682
0003d0 2e e8 41 be b2 ef 98 3e 13 19 04 3f df 85 d8 be
       -0.18936226 0.29870373 0.5160076 -0.42289636
0003e0 4f 1e b5 bf be b0 3b 3f c9 de c4 be 4a a0 9a be
       -1.4149874 0.7331656 -0.38451222 -0.30200416
0003f0 96 18 2c bf cc 37 7d 3e d1 e9 d5 3a 53 59 95 be
       -0.67225015 0.24728316 0.0016320293 -0.2916971

encoder.2.bias f4 [16]
000000 e0 e1 6e be 2d b8 ce be 1f 29 8c 3d d9 11 99 be
       -0.23328352 -0.4037489 0.06843781 -0.2989643
000010 76 c1 9f 3e 8b 86 25 3e 36 4a 6b 3e 07 99 61 3e
       0.31202286 0.16164605 0.22977528 0.22031032
000020 ba 08 bc be b1 ae 0f bf c3 40 98 bb 07 f4 88 be
       -0.36725408 -0.5612593 -0.004646392 -0.26748678
000030 02 44 7e 3d f7 e4 2e bf 60 1a 82 be 94 f8 6a 3e
       0.062076576 -0.6831812 -0.25410748 0.22946388

encoder.3.weight f4 [16]
000000 ed 32 a2 3d 15 62 e9 3d 7d e2 b3 3e 8e c0 f9 3d
       0.079198696 0.11395661 0.35133734 0.1219493
000010 19 85 8a 3e a9 f7 77 3d 14 d1 a3 3d ef 3a 75 3d
       0.2705467 0.06053892 0.07998863 0.059870657
000020 b8 12 66 3e f1 c5 2d 3e e7 b6 3b 3e c9 20 53 3e
       0.22468078 0.1697004 0.1833149 0.20617975
000030 23 3e 0c 3e 54 07 33 3e 72 31 84 3d ce fb 5c 3d
       0.13695578 0.17483264 0.064547434 0.053951077

encoder.3.bias f4 [16]
000000 73 16 2e bb 72 4c 30 bd 93 c8 81 be fa c6 a3 bd
       -0.0026563674 -0.043041654 -0.25348338 -0.07996936
000010 52 b4 39 be eb b6 f9 3c 68 14 7f bc dc f9 bb bc
       -0.18135193 0.03048273 -0.01556883 -0.02294629
000020 2b 44 ff bd 18 e6 d1 bd ea 9d 07 be c6 b8 08 be
       -0.12464174 -0.10248965 -0.13243833 -0.13351735
000030 fd fa 94 bd 32 41 22 bd 5d 53 3b bc 2e a7 3d bc
       -0.07274435 -0.039612956 -0.01143345 -0.011575503

encoder.3.running_mean f4 [16]
000000 e4 7b 07 40 0f e7 60 40 95 ff 76 40 1b 69 72 3f
       2.1169367 3.5141027 3.8593495 0.9469163
000010 23 0d b9 40 28 ba 3d c0 be 55 62 40 0f 39 09 c0
       5.7828536 -2.964487 3.5364833 -2.1441076
000020 84 d0 c3 40 19 a9 d9 40 30 90 52 40 f1 39 d0 40
       6.1192036 6.801892 3.2900505 6.507073
000030 01 12 d6 40 58 68 0b 41 3b 97 ba 3f ca 56 a9 bf
       6.6896977 8.712975 1.4577402 -1.3229611

encoder.3.running_var f4 [16]
000000 2f f4 d4 40 5c 91 81 40 ed f5 0c 41 3f 3b 07 40
       6.6548076 4.048994 8.81004 2.112991
000010 73 6e fc 40 8b da 69 40 33 16 32 40 0d ce d1 3f
       7.8884826 3.6539638 2.782605 1.6391007
000020 0a f1 03 41 71 2b 24 41 7e 6c d7 40 15 bb 96 40
       8.246347 10.260606 6.7319937 4.710337
000030 6a d3 a9 40 24 2c 0f 41 db 4f b6 3f 09 cb 7d 3f
       5.3070574 8.9482765 1.424312 0.9913793

encoder.5.weight f4 [32, 16, 3, 3]
000000 02 29 86 3e bc a7 b8 3e 26 d0 4e bc da 02 dd bd
       0.2620316 0.3606547 -0.012622869 -0.107915595
000010 9d 3f 1e bf b9 f4 ce be d4 9c 23 3d f4 80 12 3f
       -0.61815816 -0.40421084 0.039944485 0.57228017
000020 20 8d 41 be 19 a6 06 bc a7 3a 61 be e8 3d 03 3a
       -0.18901491 -0.008218312 -0.2199503 0.0005006478
000030 dd 7e 1b 3f bc cd b0 3e 6c 62 09 be 27 ee 40 3e
       0.60740453 0.34531963 -0.13416451 0.18840848
000040 a3 06 9f be 16 3e 13 be 53 43 35 be 91 9e 52 bd
       -0.3105975 -0.14379153 -0.17701463 -0.051420752
000050 e7 77 85 be 4f 08 e1 bd 80 e2 fa bd c4 00 f2 bd
       -0.2606804 -0.10987913 -0.12250233 -0.11816552
000060 e5 8f 88 be a1 4c 07 bf f3 cf 6b be 8c 68 c1 3e
       -0.26672283 -0.528513 -0.23028545 0.37775075
000070 44 6c 96 bd c8 75 dc bc 34 b5 07 3f 50 7a a8 bd
       -0.07344869 -0.026911631 0.5301087 -0.08226454
000080 a7 53 2f bd 83 03 68 be 6d c2 0b be c5 f6 87 bb
       -0.042804386 -0.2265759 -0.13648386 -0.0041492903
000090 68 47 d4 3d 68 dc 93 3d 55 2a 6b 3e a5 55 c7 bd
       0.10365182 0.072197735 0.22965367 -0.09733132
0000a0 82 25 0a bf d2 35 bb 3d 82 5a 00 bb d9 42 03 be
       -0.5396348 0.09141125 -0.0019585197 -0.12818469
0000b0 e8 60 15 be 59 47 29 3e 99 94 16 3e bd 52 d7 bc
       -0.14587748 0.16531123 0.14705123 -0.02628457
0000c0 80 a7 6c 3e 3e 70 4e be b3 a8 16 be 29 b6 a5 3d
       0.23110771 -0.20160004 -0.14712791 0.08091385
0000d0 d0 30 20 3e 32 69 1f bd f3 9f b2 bc 95 4b d0 bd
       0.1564362 -0.03891868 -0.021804785 -0.10170666
0000e0 aa 3f e0 3d 8c c0 3b 3d 0b f0 a7 be e9 35 40 3e
       0.10949643 0.045837924 -0.32800326 0.18770565
0000f0 f1 1a e3 bc b4 0c 35 bf b3 56 9a bd a3 0f 61 3d
       -0.027722808 -0.7072251 -0.07536068 0.054946553
000100 03 e6 84 3d fe 7c 69 3d c2 44 1b be 07 78 8e be
       0.06489184 0.057003967 -0.15162948 -0.2782595
000110 d1 16 53 3e a1 0f 1c bf b2 58 00 be c4 c9 df bd
       0.20614173 -0.6096135 -0.12533835 -0.109271556
000120 b7 77 97 be 5d 0d f5 3e cf b6 4e 3d f4 b8 04 bf
       -0.29583523 0.47861758 0.05046731 -0.51844716
000130 33 14 9b bd a2 0b e9 3d 39 7c 9b bd 6f ae 17 be
       -0.07572212 0.11379172 -0.07592053 -0.14812635
000140 2a 86 10 be bb cf cb bc 1e 09 5f 3e d7 05 0f 3d
       -0.1411368 -0.024879327 0.21780822 0.03491768
000150 be 0c 0c 3e 49 88 8a 3b 21 3b 17 be bb d4 28 3c
       0.13676736 0.0042276722 -0.1476865 0.010304625
000160 79 21 92 3e 9b 6c 22 3e 8f 92 cb 3d d4 f8 d0 3c
       0.28541163 0.15861742 0.09940063 0.025509275
000170 fe 27 c8 bd 7e 05 f1 bd 63 ed f2 3e 4f cc 71 3e
       -0.09773253 -0.11768626 0.47446737 0.23613094
000180 df f9 bd be d9 1e 50 3d 86 26 d5 3b 8f a7 b3 bd
       -0.371047 0.05081067 0.0065048365 -0.08772194
000190 7b a7 6b 3e ae 87 e1 3d ae ab f0 3d 3d 7a e5 3e
       0.23013107 0.11012207 0.11751495 0.44819823
0001a0 8a 7f 85 3d f9 03 85 be de e3 ba 3e 9c eb e2 3e
       0.06518467 -0.25979593 0.36501974 0.4432038
0001b0 db 46 a3 bd fb e2 8a 3e af 68 2d 3e 1a 6f 8d be
       -0.07972499 0.27126297 0.16934465 -0.27623826
0001c0 1e 83 88 3c 96 06 d7 3e 1a 60 b9 bd b0 33 9c bd
       0.016664084 0.41997212 -0.09051533 -0.07627046
0001d0 f2 65 57 3b 71 b0 05 be f9 4a 82 3e 55 a3 17 3e
       0.003286716 -0.13055588 0.25447825 0.148084
0001e0 bd 0c 15 3e 2a df 17 3f e0 ec 44 bd 67 2e 2e bd
       0.1455564 0.59324896 -0.048077464 -0.04252472
0001f0 a0 e1 62 be fd 66 9d bc 7b 34 7d 3e 5e 66 f2 3d
       -0.22156382 -0.019214148 0.24727051 0.11835931
000200 5a 89 c1 3d a3 54 79 bc fa 98 0f 3e 45 96 05 3d
       0.09450026 -0.015217933 0.140232 0.03261401
000210 3c 59 e3 3d 28 79 bd bd 32 96 6f be d9 1a 2b 3e
       0.111010045 -0.09251624 -0.23397139 0.1670946
000220 00 ab fa 3d 90 0b 2d 3e 6f 0f 9a 3c 8e 58 52 be
       0.12239647 0.16898942 0.018806187 -0.20541593
000230 93 8f 3a 3d 32 34 94 3d cc e4 a8 3d 2f 12 f5 bd
       0.04554708 0.07236518 0.082467645 -0.11966359
000240 5f 52 08 3e 39 db a4 3d 08 2b 91 bd 02 73 d4 3e
       0.13312672 0.08049626 -0.07088286 0.41493994
000250 5a c8 3d 3e b2 c2 85 3d d7 45 90 3e f9 cf 23 3f
       0.1853346 0.06531276 0.28178284 0.63989216
000260 6f 26 c6 3e 5a 63 b9 3e f3 a0 80 3e f3 8d d4 3d
       0.38701198 0.36208612 0.25122795 0.10378637
000270 6b 77 2b be 5a 23 9a 3e 6a fe 3b 3e d2 fc 2b be
       -0.16744773 0.30105096 0.1835877 -0.16795662
000280 66 ed 9a bd 9b 8b 2a 3e 09 3b db 3d ee 54 96 3d
       -0.075648114 0.16654818 0.107046194 0.07340418
000290 e8 2f ae bc 63 0e a1 3d ca d6 0f be fc 46 13 3e
       -0.021263078 0.07864072 -0.1404678 0.14382547
0002a0 a3 a8 85 be 84 e5 bd 3d 25 2d 89 3d 86 38 dc 3b
       -0.26105222 0.09272292 0.06698064 0.0067206053
0002b0 c5 ab 8f 3e d1 aa 10 3e 6d 11 81 be 34 fa ff 3e
       0.28060737 0.14127661 -0.25208607 0.49995577
0002c0 2b 52 91 3e 69 19 8d be 33 30 fa bb d4 5a c7 3d
       0.28383002 -0.2755845 -0.0076351403 0.09734121
0002d0 21 3e 57 3d 90 1f ba be 3a fe 0e 3e 82 20 07 3f
       0.052549485 -0.36352205 0.13964167 0.5278398
0002e0 1b f0 be bd 4a 21 29 3d b8 3b 88 3e 05 7b f9 3e
       -0.0932314 0.041291513 0.26608062 0.4872667
0002f0 76 0d 58 bb 63 b5 d7 bd 31 8c df 3c 65 af 86 3d
       -0.0032967008 -0.10532644 0.027288528 0.065764226
000300 36 d0 12 3e f2 22 a9 bc 34 6a 59 3d d0 f3 a9 3c
       0.14337239 -0.020646546 0.0530798 0.020746142
000310 08 f1 d0 3c 7d d6 65 3d ff 06 25 bd 64 90 58 3d
       0.025505558 0.056112755 -0.040289875 0.052872077
000320 17 8f 9e 3b 66 e0 90 bd d3 06 c1 3d 56 2d a9 bb
       0.004838835 -0.070740506 0.0942513 -0.005162875
000330 69 31 dd bd 80 3e b3 be af e4 1d 3e a6 be f9 bc
       -0.1080044 -0.3500862 0.15419267 -0.030486416
000340 8a 9e f0 3d 06 c5 a7 3d ef 1d b6 3e 56 b5 9b 3e
       0.11748989 0.08191876 0.35569713 0.30411786
000350 d6 43 76 be ad b5 dc 3c d2 10 80 3d 26 ec 55 3e
       -0.24049315 0.026942099 0.06253208 0.20890865
000360 d7 90 6f 3d 06 69 21 be bc 17 f0 bd 24 7e 0f be
       0.05848774 -0.1576272 -0.11723277 -0.14012963
000370 97 ef a7 bd 3e 84 19 be c1 a3 28 3d ef 49 10 3e
       -0.08199995 -0.14991853 0.041171793 0.14090703
000380 6c 4b 0b 3d d0 09 58 3e 6c f2 0a bd 26 37 83 3d
       0.034007475 0.21097493 -0.033922598 0.06407003
000390 30 7f fa 3e 05 50 33 3e 0a 52 bd 3d 6e b5 79 3e
       0.4892516 0.17510994 0.09244163 0.24385616
0003a0 f4 d4 39 be 9b de 3f 3e 7f 13 09 3e 0f fe ba be
       -0.18147641 0.18737261 0.13386343 -0.36521956
0003b0 d5 1e 67 bd cb 16 10 be 26 c7 8d be 5f 9d 6b be
       -0.056425888 -0.14071195 -0.27691 -0.23009251
0003c0 b2 a3 21 3d 96 3b c8 3d 26 0d 41 3d 8b ad 9d bc
       0.039462753 0.0977699 0.04713168 -0.01924779
0003d0 49 79 71 bb a9 36 ce bd f2 d1 f4 be f1 41 e2 bd
       -0.0036845973 -0.10069019 -0.47816426 -0.110477336
0003e0 59 89 df 3d 7b ea 58 3d e6 ea d6 bd 88 07 3e 3e
       0.10914869 0.052957993 -0.10494022 0.1855756
0003f0 78 8d b8 be 5a d8 9e bd bd ee 48 be 8e 33 82 bd
       -0.36045432 -0.077561095 -0.19622321 -0.063574895

encoder.5.bias f4 [32]
000000 bf aa d9 bc 7e e3 23 be 79 b3 0a 3e ae 7c 64 bd
       -0.026570676 -0.1600475 0.13545026 -0.055782966
000010 13 7b ec bd 67 41 c7 bd 05 23 ab bd 0e ba 3f 3d
       -0.11546912 -0.097292714 -0.08356289 0.046808295
000020 c1 ab dd bd 72 d9 14 3e fd ab 97 3d 9b 04 9f 3d
       -0.10823775 0.14536074 0.07405851 0.0776455
000030 94 fb 84 3c d4 d5 c3 3c 2f f5 04 3d dc 23 f2 bd
       0.016233243 0.023905672 0.032460388 -0.11823246
000040 38 c3 78 3d 0b d8 37 3e e5 84 82 3d 8b cc 23 be
       0.06073305 0.17953508 0.06373004 -0.15995996
000050 8e 25 17 bd d3 34 55 3d a2 14 54 bd de 4b 56 3e
       -0.03690105 0.05205233 -0.05177749 0.20927379
000060 13 44 b9 bd f7 11 88 bd d6 41 ee 3b 51 70 ff 3d
       -0.09046187 -0.066440515 0.007271032 0.124725945
000070 1a 82 3c be 1a 60 f7 bd 15 37 47 be 96 a9 5c 3d
       -0.18409005 -0.12078877 -0.19454606 0.053872667

mu.weight f4 [10, 288]
000000 b5 48 9a be 29 92 20 3e c1 db 31 bc d1 10 25 be
       -0.30133596 0.15680756 -0.010855616 -0.16119696
000010 f5 be a5 3d 31 ba 23 be 99 f8 a0 3d 7c 37 14 bf
       0.08093063 -0.15988995 0.07859916 -0.5789716
000020 fa 7d 0c 3f 41 d2 72 3b 0d a8 43 3e 0e d5 6d be
       0.54879725 0.003705159 0.19107075 -0.23225805
000030 2f 29 8b bc 51 bd f1 3e f5 91 01 3f fd 11 a3 be
       -0.016987411 0.4721475 0.5061334 -0.3184966
000040 ad 02 18 be 2e be fa be 15 66 09 bb 58 1d 94 bd
       -0.1484477 -0.4897322 -0.0020965387 -0.072321594
000050 fa f9 51 be 92 4a 8f bd 0a ad f0 bd 17 3f 1e 3e
       -0.20505515 -0.06996645 -0.117517546 0.15453754
000060 4c 36 99 be 56 4e 97 3e 19 e0 89 3e db 39 0e be
       -0.29924238 0.29551953 0.26928785 -0.13889258
000070 44 62 8b bc 83 71 26 bc 16 ab 60 3e 36 f7 e5 3d
       -0.01701463 -0.010158899 0.21940264 0.11228792
000080 24 ce ea 3e 93 63 00 bf f3 6b cf 3d fd e9 f5 bd
       0.45860398 -0.5015194 0.101280116 -0.1200752
000090 ce d2 cb bd 42 e1 bc bd 4b 41 d7 3d 3a 38 3e 3e
       -0.09952317 -0.09222652 0.105105005 0.18576136
0000a0 89 c3 f2 3c 2b 81 3c 3e cd 78 f0 be 1a c1 65 3e
       0.029634254 0.18408649 -0.46967164 0.22436944
0000b0 13 70 3f be d8 4e fa bc 9c 95 81 3e 2d 60 27 3e
       -0.18695097 -0.030555174 0.25309455 0.16345282
0000c0 f6 77 04 3e 1f b0 7f be 8d 44 72 bd 65 6e 0a be
       0.12936386 -0.24969529 -0.059147406 -0.13518675
0000d0 f7 23 9e 3e e0 b2 59 be eb bf 50 be 7f 02 1b 3d
       0.30886814 -0.21259642 -0.20385711 0.037844177
0000e0 a2 1e ae bc f0 74 ad 3b 1f d4 3f 3e 2c 4e dc bd
       -0.021254841 0.005293481 0.18733262 -0.107570976
0000f0 1d 97 9f 3d 99 7c b0 bd e5 6f c0 bd b7 10 7f 3e
       0.077924944 -0.08617515 -0.09396342 0.2490872
000100 73 d1 f3 bd 60 ab 52 be 3f bb 05 3e f7 08 4a 3e
       -0.11905184 -0.20573187 0.1305971 0.19729982
000110 7a 1e 0e 3d 12 f3 6b 3e cf d0 8f be c8 fc 12 be
       0.034697033 0.23041943 -0.28088996 -0.14354241
000120 60 77 70 be d1 05 54 bd 94 12 96 3d f0 79 6f bd
       -0.23483038 -0.05176336 0.07327762 -0.058465898
000130 cb b9 f1 bd 56 b8 86 be b9 90 bd bd 9b 58 35 3f
       -0.11803015 -0.26312512 -0.09256119 0.70838326
000140 38 d4 ae bc 61 13 6c 3e 8f 18 8b 3e 94 d4 5a 3e
       -0.021341428 0.23054267 0.27167174 0.21370155
000150 86 38 15 be 60 df 9b be d1 51 8a be 65 61 44 be
       -0.14572343 -0.3044386 -0.27015546 -0.19177778
000160 3a 38 80 be 6f 7d 89 be 91 27 57 bd a2 a7 e3 3b
       -0.25042897 -0.2685351 -0.052527968 0.0069474736
000170 9e 11 a9 3d 8b 00 5c 3d 99 97 09 3d 9d db 9c 3d
       0.08255313 0.053711455 0.03359184 0.076590754
000180 d9 62 46 bd e1 5e 69 bd b3 19 a4 bd 6d 6d 18 be
       -0.048434112 -0.05697525 -0.08012714 -0.14885493
000190 e3 21 43 3e 81 2c 1d bd 79 de 32 3d d7 43 6f bd
       0.19055896 -0.03837252 0.043669198 -0.058414306
0001a0 c0 20 41 3e 85 26 16 3e eb fc 67 3d f9 58 41 be
       0.1886015 0.14663132 0.056637686 -0.18881597
0001b0 61 54 08 39 a7 ce 9c bc e3 59 8d 3d e3 7e 8a bd
       0.00013001404 -0.019141508 0.0690191 -0.06762483
0001c0 1a a2 54 3e e1 2d 1b 3e f0 da 66 be df 45 74 be
       0.20764962 0.1515422 -0.22544456 -0.23854779
0001d0 80 56 e6 3d 7e 01 f6 3c bd 62 89 bd 56 65 b3 bd
       0.11246967 0.030030008 -0.06708286 -0.08759563
0001e0 f4 1b cb bb 1f 5c b5 3d 0e 0a 05 3f bf a1 37 bf
       -0.0061984006 0.08855461 0.5196847 -0.7173118
0001f0 c4 a3 2b bf e1 2e 75 be f7 65 4a bc e2 49 79 bc
       -0.6704676 -0.23943664 -0.012353412 -0.015215369
000200 6c 3a 63 3c 19 2e 93 3d 93 d1 1a 3d 48 d5 00 3e
       0.013868909 0.07186527 0.03779752 0.1258136
000210 ce d1 96 bd c6 05 58 be c7 f4 a6 3e 3c 10 2f bd
       -0.07364236 -0.21095952 0.32608625 -0.04274009
000220 43 55 f7 3d 16 71 02 be 4f 61 53 be 10 ea fd bc
       0.12076809 -0.12738451 -0.20642589 -0.030995399
000230 d9 4b 05 be c5 71 c2 3d b0 af 85 bd 93 5a 89 3e
       -0.13017215 0.09494356 -0.0652765 0.26826915
000240 05 55 8e bd 9e 30 62 bc d8 18 2a 3d 4d c5 6d 3e
       -0.0694981 -0.013805537 0.0415276 0.23219796
000250 b6 a9 d9 3d 79 6e 5d 3d b3 bb 15 bd d2 66 83 be
       0.10628073 0.054060433 -0.036555957 -0.25664383
000260 45 62 03 be 6e 92 4c 3e c8 54 36 3c c7 5d ae bb
       -0.12830456 0.19977733 0.011128612 -0.0053212377
000270 83 50 6c 3d 6c bc 41 3e 96 37 db 3e 44 c0 fd bd
       0.05769397 0.18919533 0.42815846 -0.123901874
000280 fe ea fa be ab 0c d7 be 64 16 ec bc be 8a e0 3d
       -0.4900741 -0.42001852 -0.02881927 0.10963963
000290 44 04 34 3c df 0e 54 3d 49 d6 d7 bd 6c 29 0c 3e
       0.010987345 0.051771995 -0.105389185 0.13687676
0002a0 98 4b d3 bd a9 8a 09 3e a9 b8 93 3d cb 82 37 3e
       -0.10317153 0.13431801 0.072129555 0.17920987
0002b0 14 9b 68 be b9 06 32 be 9e da 0e be 64 42 40 3e
       -0.22715408 -0.17385377 -0.13950583 0.18775326
0002c0 d2 03 67 3d 37 22 d9 be 87 f0 a2 3e 4f d5 ac 3d
       0.056400128 -0.42408916 0.31824133 0.08439123
0002d0 80 d4 5c be 89 cb 6d bd 5b 1e b2 3e d3 35 8a be
       -0.21565437 -0.058055434 0.34788784 -0.2699419
0002e0 35 1a ef 3e b1 3e 20 be 75 8d db 3e 11 96 dd 3e
       0.46699682 -0.15648915 0.4288136 0.43278554
0002f0 7e 38 78 be c7 ba d4 bb 3d b1 9d 3e 27 e4 fd bc
       -0.242403 -0.006491992 0.30799285 -0.03099258
000300 c2 48 e6 bb 40 23 14 be d0 91 3c be 61 9f b0 3d
       -0.0070277164 -0.14466572 -0.18414998 0.08624149
000310 b4 62 a3 3e 23 88 8a be 1b dd 9b bd 31 e9 00 bd
       0.31911242 -0.2705699 -0.07610532 -0.03147239
000320 1f a2 1a 3e 4a 52 d0 bd 72 aa e1 3e 50 91 5f be
       0.15100907 -0.101719454 0.44075352 -0.21832776
000330 e1 0a b3 3d 7f 99 99 bd 88 f7 4c 3e 2a 6c e0 3c
       0.08742309 -0.0749998 0.200163 0.027395327
000340 e6 1f d6 bd bc e3 6b be af c6 89 3e 0b ee ac be
       -0.10455303 -0.23036093 0.26909396 -0.33775362
000350 9c 39 7d 3e 74 35 86 be 55 ec 10 3e 5f 4d 0d 3f
       0.24729007 -0.26212656 0.14152654 0.55196184
000360 fa 2b 84 3c 99 ad b7 3e 8f ee 26 3c 89 be 24 3d
       0.01613425 0.35874632 0.010188713 0.04022077
000370 06 1d a7 be dc 1d de bd d2 f8 89 3e 4a 58 95 3e
       -0.3263933 -0.10845539 0.26947647 0.29168922
000380 7f ce d6 be 18 bb 6e bb 1f 67 8f bd f1 a5 05 3e
       -0.4195442 -0.0036427435 -0.07002091 0.13051583
000390 a1 e1 8b 3c 8b d7 67 3d 90 ac 0f bf 21 0a a3 be
       0.017075362 0.056602042 -0.56122684 -0.31843665
0003a0 2e 94 e1 3e 5e 1d 76 3e 83 d3 10 3c 37 f9 e7 3d
       0.44058365 0.2403464 0.008839491 0.11326831
0003b0 4a f0 09 be 50 14 59 bd df b5 85 3d f8 70 b9 3b
       -0.13470569 -0.052997887 0.0652883 0.005659219
0003c0 01 0e e3 3d 55 4e 99 3d af 7f 0b be f3 97 9d 3c
       0.110866554 0.07485644 -0.13622926 0.019237494
0003d0 0e 20 2f be c4 ab 0e 3c 3c b3 26 3e 9d da 02 be
       -0.17102072 0.008707944 0.1627931 -0.12778707
0003e0 8c aa 50 3d 7d 7b 84 3e 2b ca 51 be 8d 88 1c be
       0.050943896 0.25875464 -0.20487277 -0.15286465
0003f0 b2 d4 82 bb 4d b7 3f 3a 06 b4 90 3d eb ad 28 be
       -0.0039926404 0.0007313386 0.07065587 -0.16472594

mu.bias f4 [10]
000000 93 64 8e be 2e 67 44 be e2 71 20 3e 35 6a 49 bd
       -0.27811107 -0.19179985 0.15668443 -0.049173553
000010 aa 4f 02 3e bc 20 c8 be 4b fa 99 bc 95 1d 74 bd
       0.12725702 -0.39087474 -0.018796107 -0.059598524
000020 7f 27 4c 3e 80 19 d0 bd
       0.19936942 -0.10161114

logvar.weight f4 [10, 288]
000000 2d a9 df bd 72 29 d4 3c 43 48 f9 bc f9 d0 5c bb
       -0.109209396 0.025898669 -0.030429965 -0.0033693893
000010 5d d7 6e 3b bc ae a4 bd 72 94 4f bd 33 20 f6 3d
       0.0036444284 -0.080411404 -0.050678678 0.1201786
000020 f8 94 8a 3e 48 ed fe 3e 04 ed ca bd cd 46 27 bd
       0.2706678 0.49790406 -0.099084884 -0.040839005
000030 e1 09 8f 3e 4b c5 f6 bd 68 03 8c be 7e 7f 98 3e
       0.27937225 -0.120493494 -0.2734635 0.2978477
000040 69 20 43 bd 10 a1 2f be 33 55 12 bd 6f c5 5f bd
       -0.04763833 -0.17151284 -0.035725784 -0.054631647
000050 a2 8b b5 3c a5 f4 44 bd 61 93 3f 3d c6 e3 d2 3d
       0.022161309 -0.048084874 0.04677141 0.102973506
000060 e5 99 76 be 50 63 f2 3c a8 88 12 be b3 fe 17 be
       -0.24082144 0.029588372 -0.14309943 -0.14843254
000070 a2 7a 4c be bf 76 44 3e 69 fe 6f be 33 74 f2 bd
       -0.19968656 0.19185923 -0.23436894 -0.118385695
000080 a1 e1 21 3c 20 3a 0b 3d 3e 7e 9e bd 0c 4e 69 3d
       0.009880454 0.03399098 -0.077389225 0.056959197
000090 34 21 c1 be 0b e2 20 3d 84 dc 1c be 1d 36 03 bd
       -0.37720644 0.03927807 -0.15318495 -0.03203403
0000a0 c0 d8 13 3e eb e6 4d 3e c1 3e e3 bd 0d 04 3d 3e
       0.14438152 0.2010762 -0.11095954 0.18458577
0000b0 00 43 81 3e 0a 3e 1a 3d 68 02 46 3d fa f2 45 3e
       0.2524643 0.03765682 0.04834214 0.1933097
0000c0 d4 f4 46 3b 4c 86 49 be 94 be b4 bd 5e 74 ab bd
       0.0030358331 -0.19680136 -0.088254124 -0.08371805
0000d0 99 eb 60 bd d4 ed e5 bd bf 8c 86 3d c8 fc c0 3d
       -0.054912183 -0.11227003 0.06569814 0.09423214
0000e0 2f c3 03 bc 0b 46 d5 bc 3f b9 97 3e 6c 5e 1d 3e
       -0.008042141 -0.026034376 0.2963352 0.1536805
0000f0 12 b7 2a be 8e 15 bb bc 54 47 cb 3d 4e 69 f4 bd
       -0.16671398 -0.022837427 0.09925714 -0.11934148
000100 61 b4 cf 3d d7 de 86 bd 40 41 82 bd fd 82 97 3e
       0.101418264 -0.06585472 -0.06360102 0.29592124
000110 7c 0e 36 be 9e d3 98 3e 1b f1 5a 3e cc 7b 47 be
       -0.17778963 0.2984895 0.21381037 -0.19480819
000120 f3 19 08 3e 28 8f d4 bc 07 c0 56 3d ae 2d f1 bd
       0.13291149 -0.025947168 0.052429225 -0.11776291
000130 4e d2 39 3e 38 17 c0 3d a4 71 c5 bd 0c c7 b0 3d
       0.18146631 0.093794286 -0.09640816 0.08631715
000140 5a f6 ef 3d 16 08 49 3e 8a c6 b0 bd d8 8c 9f be
       0.1171691 0.19631991 -0.08631618 -0.31162143
000150 d1 fb c6 3b 1a de fd bd a5 e5 be be a6 04 95 3e
       0.0060724993 -0.12395878 -0.3728458 0.2910511
000160 8c 49 01 3e 0e e4 79 3e 3b 49 66 be 21 f8 82 3c
       0.12625712 0.24403402 -0.22488873 0.015987458
000170 48 7e 4b 3e a8 7c 39 3d 78 c8 c7 3d 62 5c 67 be
       0.19872391 0.045284897 0.09755033 -0.22593835
000180 42 6d 27 3d 41 c7 39 3e 75 e5 54 3e 75 c9 bc bd
       0.04087568 0.18142416 0.20790656 -0.092181124
000190 21 86 04 3e 1f fd 05 3e f5 9e 5d 3c 4e d4 1a be
       0.12941791 0.1308484 0.013526668 -0.1512005
0001a0 ee 01 29 bd c2 b1 4f be 7d dc f6 bd d8 ff fa 3d
       -0.041261606 -0.20282653 -0.120537736 0.122558296
0001b0 8c 54 84 bd 84 dd 02 be 74 6a 2f bd 87 a3 0b be
       -0.064614385 -0.12779814 -0.04282613 -0.136366
0001c0 30 58 1e 3e 58 8a 10 3d 39 4f 83 bd 98 23 77 3e
       0.15463328 0.035288185 -0.06411595 0.24134672
0001d0 d4 39 d5 bd ac 17 1d bd 55 93 96 bd 87 c6 12 be
       -0.104114205 -0.038352653 -0.0735232 -0.14333545
0001e0 33 0b 21 bd 86 ff 59 be a1 30 88 be 8f 3e 82 3d
       -0.03931732 -0.2128888 -0.265996 0.06359588
0001f0 11 37 2c 3b e5 05 a0 be 1d 83 87 3c 0b 6f 3c be
       0.002627794 -0.31254497 0.016542012 -0.18401735
000200 57 ed 4e bd c1 e4 12 3e ba b7 87 3d 34 67 3d 3e
       -0.050519314 0.14345075 0.0662684 0.184964
000210 b2 5e 10 3e 01 82 3c 3e a8 33 d5 bc cd 33 35 3e
       0.14098623 0.18408968 -0.026025608 0.17695542
000220 43 aa c8 bb 50 53 2e 3e 29 c8 dc be f4 76 53 bd
       -0.0061238124 0.17023969 -0.4312146 -0.051627114
000230 c6 b9 58 be 2e c3 6b 3e 2c 0d 91 3d 7c db 80 be
       -0.21164617 0.23023674 0.070825905 -0.25167453
000240 d3 58 3b bd 8d a6 8b bd 59 4a 8e be 71 7a b7 3d
       -0.045739006 -0.068188764 -0.27791098 0.08958901
000250 4f 74 90 3d a8 98 76 be a9 a6 68 3e 04 3d c1 be
       0.07053434 -0.24081671 0.22719826 -0.37741864
000260 d8 a5 42 3e e6 66 c1 bc e1 c4 69 bd eb d3 d0 3d
       0.19008577 -0.023608636 -0.057072524 0.1019667
000270 f2 71 a3 bd 80 96 6b be f0 04 91 3e 17 7c 0f be
       -0.07980718 -0.2300663 0.2832408 -0.1401218
000280 c1 90 e3 bd 3d e5 88 3e 89 2a 2f be 06 5a 01 bd
       -0.11111594 0.26737395 -0.1710607 -0.031579994
000290 12 8f 84 3d d7 7e 16 3e 1f cd b2 bd bd fd 20 3e
       0.06472601 0.14696823 -0.0873053 0.15721793
0002a0 ed e7 ee 3d e3 3e 46 be e9 ed a8 bd aa 38 eb 3d
       0.1166533 -0.19359927 -0.08248503 0.11485417
0002b0 90 f3 88 3d 21 43 6c 3d 7f d6 ca bc 83 ab 53 3d
       0.06687081 0.057681207 -0.024760483 0.05167724
0002c0 62 bf fd bc 6a 10 ab bc 9e ed 31 3e 2e 88 25 be
       -0.030975047 -0.02088185 0.173758 -0.1616523
0002d0 af 1a 1f bd ee fd 05 3e 34 0b 38 3e 41 97 66 3d
       -0.038843807 0.13085148 0.17973024 0.05629659
0002e0 34 1f 57 bd c3 1f f8 bc 12 af 29 3e 17 88 3d be
       -0.052519992 -0.030288583 0.1657069 -0.18508945
0002f0 9a e0 b5 bd ed 8a 8d be 4d e1 5e bd 65 60 ae bd
       -0.0888073 -0.27645054 -0.054414082 -0.085144795
000300 bc 3e e1 3d 17 58 c9 3d dc 1d 1e be 75 11 3d be
       0.10998294 0.09831255 -0.15441078 -0.1846369
000310 5a 47 8b 3e 56 2b b0 3e 2b c4 97 be 76 89 dc bd
       0.27202874 0.34408063 -0.29641852 -0.10768406
000320 e2 0c 09 3e 42 a6 6b be 87 b9 1b 3e 4c cd fe 3d
       0.1338382 -0.23012641 0.15207492 0.12441501
000330 f8 d6 8a 3d 22 23 d0 3e 10 ec 4b 3e a7 c9 89 3d
       0.06779283 0.40651804 0.1991427 0.06727915
000340 b0 1c 44 be 28 67 d3 bd 42 7c fe bd aa 9f 5d be
       -0.19151568 -0.1032241 -0.12426044 -0.21642938
000350 01 a4 f3 bd d6 2f 01 3e b2 59 3b be 3d ab b5 3b
       -0.11896516 0.12615904 -0.18295935 0.005544095
000360 08 c2 8b 3e 1d cc 99 bb 53 c7 f1 bd e4 15 33 bd
       0.27296472 -0.0046935217 -0.11805596 -0.04372205
000370 47 14 82 3d bd 14 49 3e 80 29 27 bf 4b 86 f7 3c
       0.06351524 0.19636817 -0.652977 0.030215403
000380 61 67 bb bd 34 db 81 3e ea d2 01 3e 7c ba eb bd
       -0.09150577 0.2536255 0.12678114 -0.115101784
000390 35 69 db bc aa 99 04 be 7a 32 92 be c7 c6 9f bc
       -0.026783565 -0.12949243 -0.28554136 -0.019503964
0003a0 2e b2 b7 be d0 76 6a 3e 23 25 98 bd 5b ce 27 bd
       -0.35878128 0.22896886 -0.07428958 -0.04096828
0003b0 12 3b 4b be 2b 67 88 bd e6 ab cd 3e 50 bd 85 3d
       -0.19846752 -0.06660303 0.4017021 0.06530249
0003c0 5e 6b 37 be d0 12 33 3f 03 e9 87 3d b1 8a 36 3c
       -0.17912051 0.6995058 0.0663624 0.011141465
0003d0 be f6 0f be d1 d2 2e be 3f 16 f1 bd 09 a0 6d bd
       -0.14058968 -0.17072608 -0.11771821 -0.05801395
0003e0 54 57 9f 3e 30 61 5f be 8d 5f ad 3d ec 73 1d 3e
       0.31121314 -0.21814418 0.084654905 0.15376252
0003f0 80 6e c4 3d 88 f7 8b 3d 81 43 b0 3c 44 69 05 bd
       0.09591389 0.06834322 0.021516563 -0.032571092

logvar.bias f4 [10]
000000 64 46 57 bf c9 39 b5 bf 46 ab 15 bf 41 61 96 bf
       -0.8409178 -1.415826 -0.5846447 -1.174843
000010 03 73 91 bf 40 0f 40 bf 2f fd 31 bf 7f 90 3d bf
       -1.1363224 -0.7502327 -0.6952695 -0.7404861
000020 88 fb 6f bf 16 55 11 bf
       -0.9374318 -0.56770456

fc.0.weight f4 [288, 10]
000000 bb db ef bd a7 c1 b7 3e 99 33 c6 bc 77 ad 8f 3e
       -0.11711832 0.35889933 -0.024194526 0.2806203
000010 fe e4 85 be 18 28 48 be 60 2a 88 be e8 aa b6 3d
       -0.2615127 -0.19546545 -0.2659483 0.089193165
000020 48 d9 b4 3d 2f f4 06 3c 00 ce 7e be 5d ed 1b bf
       0.088305056 0.008236929 -0.2488327 -0.6090906
000030 d7 d2 01 3e 96 cd 8f bc 38 20 fb 3e aa 87 df 3d
       0.12678085 -0.017554086 0.49048018 0.10914548
000040 b5 e0 89 be c0 13 c9 3e 44 9b 35 3e c0 bc f6 3c
       -0.2692925 0.3927288 0.1773501 0.0301193
000050 2f 16 e0 be ff 65 74 3e 87 86 15 3e bc 95 ca be
       -0.43766925 0.23867033 0.146021 -0.39567363
000060 29 5f 9a 3e 84 a8 a0 3e af 60 1b bf fc f1 04 bd
       0.30150726 0.31378567 -0.606944 -0.032457337
000070 16 8f c1 be c2 58 39 be 8a 83 f5 3e fa 6a 70 bf
       -0.37804478 -0.18100265 0.4795192 -0.93913233
000080 88 58 cd 3e 23 55 8d be bb 57 9b 3b 40 1e 51 3e
       0.40106606 -0.27604017 0.004740683 0.20421696
000090 f7 e6 0f 3f 4f f6 29 bd 06 17 40 bf c9 98 83 3e
       0.562118 -0.041494664 -0.7503513 0.25702503
0000a0 c3 e8 bd 3e 00 af da be 87 63 71 3e 3d 77 4b 3e
       0.37091646 -0.4271164 0.23573123 0.19869705
0000b0 db bc a2 3e 9c 9b 17 bf a0 6c 3b 3e 8d a3 89 3e
       0.3178471 -0.59221816 0.18303156 0.26882592
0000c0 17 f2 f2 3e 33 9d 1e 3e 9b 9a 20 be b6 c4 10 3f
       0.47450325 0.15489654 -0.15683977 0.5655016
0000d0 72 4b 0f 3e cb 5b 07 bd 81 e7 7a bc 8e 23 e8 bd
       0.13993624 -0.033046525 -0.015313984 -0.113349065
0000e0 91 59 8a be 09 86 c0 3e 86 5d 9d 3e a2 01 40 3d
       -0.2702146 0.3760226 0.30735415 0.046876557
0000f0 d6 db 1f 3f 22 24 ce 3f 71 05 e9 bc 0e 38 21 3f
       0.6244482 1.6104777 -0.028444977 0.6297616
000100 d9 26 11 bf 2f 25 a7 be 59 93 97 bc 46 b9 9a bd
       -0.566999 -0.32645556 -0.018502878 -0.07554869
000110 b8 c4 60 bd ae fd 73 be b8 d3 09 bf 12 9f 37 3e
       -0.054875106 -0.2382724 -0.5383868 0.17931774
000120 6e 87 74 bc 26 3e a9 3e 66 2f 8d be 7b 21 ca 3c
       -0.014924867 0.33055228 -0.27575225 0.024674168
000130 ec 8a d3 3d 26 29 84 3e 6b 44 e0 bc 2c b8 89 be
       0.103292316 0.25812644 -0.027376374 -0.26898324
000140 41 c0 a0 3d 10 5e ed 3c 5b b0 5d 3d 27 4d 9b bf
       0.078491695 0.028975517 0.054123264 -1.213292
000150 82 5e 29 3f a7 3a bb be db b3 8f bd cd f9 8d 3e
       0.6615983 -0.36568186 -0.070167266 0.27729645
000160 83 55 9d 3c 12 bb c9 bd 64 76 0c bf 0a 85 a3 be
       0.019205814 -0.09850134 -0.5486815 -0.31937438
000170 6d 22 b7 3d 32 6f 6b be 23 65 17 3f f6 c3 b3 3e
       0.08942113 -0.22991636 0.591387 0.35110444
000180 0a 4e a6 be d1 76 c1 3e b8 03 8b 3e 0b 3e a4 3e
       -0.32481414 0.37785962 0.27151275 0.32078585
000190 46 f9 bb bc c0 93 7e 3d 56 68 da 3d b6 f2 02 3f
       -0.022946011 0.062152624 0.10664432 0.511516
0001a0 4d ae 58 3f 30 5e 8f bd 3d fb 27 be 65 ae 76 3e
       0.8464096 -0.07000387 -0.16404434 0.24089964
0001b0 9b 78 09 bf f0 c9 ac 3d a4 39 ab 3e e8 f4 45 be
       -0.53699654 0.08436954 0.33442414 -0.19331706
0001c0 da e1 22 3b 9c fa a9 be d8 d7 3f be 7a 08 30 3e
       0.0024853856 -0.33199012 -0.18734682 0.17190734
0001d0 25 6a 0d 3f 0d 6e a2 3d e2 51 36 3f c2 85 27 be
       0.5524009 0.07931147 0.71218693 -0.16359618
0001e0 b5 cd 14 3f 98 e9 93 3e d0 73 79 be 8a e6 24 be
       0.58126384 0.28889155 -0.24360585 -0.16103569
0001f0 e9 f0 1b 3d 79 c8 0b bf 17 30 71 bc 70 63 28 3d
       0.038071547 -0.5460277 -0.014720938 0.041110456
000200 fd 8a 4b be ec 25 26 be 62 81 9e 3d 3e 90 a1 be
       -0.19877239 -0.16225404 0.077395216 -0.3155536
000210 eb 9f be 3d 84 79 04 bd b5 a3 1c 3e 2e 14 60 be
       0.09307846 -0.03234245 0.15296824 -0.21882698
000220 15 86 b7 bd 8f 0a ed 3c cd c0 b7 3e 6d fb 22 bd
       -0.08961121 0.028935699 0.35889283 -0.03979056
000230 a4 65 67 3f ab 5d 93 3f db 35 7f bd f4 71 3e be
       0.90389466 1.151296 -0.06230722 -0.18598157
000240 61 ad 68 be b7 09 ea 3d ec 7e db bd c1 a0 09 3e
       -0.22722389 0.11427634 -0.10717568 0.13440229
000250 cc 38 da 3e 4f 05 af 3d 90 03 09 3f bb 72 29 bf
       0.42621458 0.085459344 0.5352106 -0.6619069
000260 74 53 4c 3e cb 97 5a bf e9 fe e6 3b 5f c5 34 3d
       0.1995371 -0.8538787 0.0070494306 0.04413354
000270 b0 6d 32 3d 3a f9 29 be f1 a5 4f 3e 0f 78 46 be
       0.043561637 -0.16598979 0.20278145 -0.19381736
000280 3b db 59 bf b5 0a 98 bf b3 c2 8b bd 5e 89 eb be
       -0.85100144 -1.1878268 -0.06824245 -0.4600324
000290 f8 c0 9c be 21 f5 21 be 5a 74 bd 3d 2c ff ee be
       -0.30615973 -0.15816166 0.09250708 -0.46679056
0002a0 ca bc 27 bf 8b b5 eb bd e0 8e 24 3d 32 5d a5 bf
       -0.65522444 -0.11509236 0.04017532 -1.2919066
0002b0 13 42 ae 3d 6a 33 54 be 6e 9d 00 bf 32 2e b9 ba
       0.085086964 -0.20722738 -0.5024022 -0.0014128147
0002c0 10 dc ae be f9 fa f4 3d 8d 26 a1 3e 2e b1 9b bd
       -0.3415227 0.11961932 0.31474724 -0.07602154
0002d0 f2 9d a6 be 68 6a 7a 3f a9 5e 96 bd 45 4f a3 3e
       -0.32542378 0.97818613 -0.07342274 0.31896415
0002e0 e8 11 80 be 76 4b 74 3e 3c 41 63 3d 1a 80 c3 3a
       -0.2501366 0.23856911 0.055482134 0.0014915497
0002f0 25 9e b4 3b 66 b3 0e be 6b a9 72 3e fc f5 c4 bd
       0.0055120164 -0.13935623 0.2369744 -0.0961723
000300 f5 04 d6 be d7 9b ad be ad 69 8f 3d b1 12 e9 be
       -0.41800657 -0.3390796 0.07002578 -0.45522073
000310 50 db 5b bd 0a 65 39 bc 39 81 01 3f 99 a0 76 3c
       -0.05367595 -0.0113155935 0.50587803 0.015052938
000320 93 73 72 3e 4b a8 50 3f 92 04 01 3d 6b b0 aa bf
       0.236769 0.81506795 0.0314985 -1.3335088
000330 ad 43 e4 be c5 0b e0 3e cc 5a 04 3e 04 ba f9 be
       -0.44582883 0.4375898 0.12925261 -0.4877473
000340 7b 88 90 3e 65 48 14 3b 7a 6f 05 3e 45 ab 9e 3e
       0.28229126 0.0022626158 0.13030806 0.30990043
000350 c9 c3 27 3d 89 c0 e2 be d1 e9 75 be ae 51 7f bd
       0.0409582 -0.44287518 -0.24014975 -0.062333755
000360 6d ff 87 3e a3 da 34 3e 03 5a 98 3e 2d 82 26 bc
       0.26562062 0.17661528 0.29756173 -0.010162872
000370 b7 af da be 33 30 34 3e e5 6c 91 3e d3 3b 28 bf
       -0.42712185 0.17596512 0.28403392 -0.65716285
000380 64 61 dc 3f b1 42 2a 3f 00 d8 d3 3d 4d 95 2e be
       1.7217221 0.66508013 0.10343933 -0.17049141
000390 04 fa 20 3e a5 01 1c 3e 88 10 c9 3e 20 fc e4 bf
       0.15720373 0.15235002 0.39270425 -1.7889442
0003a0 ec f3 83 bd c9 2b 89 3d dd a5 5a bc 27 ff bc 3d
       -0.06443009 0.066978045 -0.013345209 0.09228354
0003b0 28 61 fc 3d 03 37 25 be 3c cc ce bd c4 e0 21 3d
       0.123232186 -0.16134267 -0.10097548 0.039520994
0003c0 77 02 0c 3f f1 61 99 bf 73 cb 0d 3e af 38 c3 be
       0.5469126 -1.1983014 0.13847141 -0.38129184
0003d0 d6 4b f5 3e e9 3d 90 be ba 6c 3b be 06 3f bf bc
       0.4790942 -0.28172234 -0.18303195 -0.023345482
0003e0 8d 93 92 3e 32 d8 42 3e 69 97 17 3f 37 92 91 3e
       0.28628197 0.19027784 0.5921541 0.28431866
0003f0 6e 93 9b 3d cf 01 9c bf 64 e6 54 3e 36 b7 80 bb
       0.07596479 -1.2188052 0.20791012 -0.0039280904

fc.0.bias f4 [288]
000000 66 c3 c1 be 53 16 40 3f 16 ab b8 be 8a f1 1b bf
       -0.3784439 0.75034064 -0.36068028 -0.60915434
000010 83 fa a5 3f 90 ff 5e 3f ab f8 07 c0 6c 74 14 3e
       1.2967075 0.8710871 -2.1245525 0.14497536
000020 e2 13 34 bf 43 c7 21 3f 10 09 85 3f a1 a3 89 3f
       -0.7034284 0.63194674 1.0393391 1.075306
000030 17 c5 e5 be 7c 62 88 3d aa d3 ea be 30 ab 55 bf
       -0.4487693 0.066594094 -0.45864612 -0.83464336
000040 b7 cb ae bf 1d 83 47 bf 44 75 c2 3e 57 20 52 bf
       -1.3655919 -0.7793444 0.37980092 -0.82080597
000050 e5 aa 8b bd 77 70 d1 3c e4 73 be bf fb b6 9b bf
       -0.06819705 0.025566323 -1.4879117 -1.2165216
000060 74 58 80 bf 0d c4 a2 be 5b 1b 0e be bb 9b 21 bf
       -1.0026994 -0.317902 -0.13877623 -0.6312825
000070 52 41 40 bf 71 77 14 3e d9 f0 26 bf c6 0f 2f 3f
       -0.7509967 0.14498688 -0.65211254 0.68383443
000080 e3 b2 5b 3e 75 96 6b be a5 98 7b 3f 30 17 2c bf
       0.21454959 -0.23006614 0.9827979 -0.6722288
000090 22 3b 4f bf e7 d3 84 3e e9 67 91 be 79 42 63 3d
       -0.80949605 0.2594292 -0.2839959 0.055483315
0000a0 35 7b c9 be df 49 2d bf 8f 87 a1 3e db 97 a0 3e
       -0.39351812 -0.67690843 0.31548735 0.31365857
0000b0 4a 7f b8 bf 1b 1c 13 bf 6e 87 85 be cf e6 c7 3e
       -1.4413846 -0.5746476 -0.26079887 0.3904328
0000c0 15 2a 1f bf a8 0a 50 3f e9 f6 cd 3f 1e 00 a0 bf
       -0.6217359 0.8126626 1.6090976 -1.2500036
0000d0 d6 55 6d 3f 03 2b b4 3f ac 51 0c bf 4b 36 c2 bf
       0.927091 1.4075626 -0.5481212 -1.5172819
0000e0 a6 f3 9e bf b6 2e b1 be 87 fc 25 bf 33 69 84 be
       -1.2418106 -0.3460595 -0.6483845 -0.2586151
0000f0 26 9a 92 bc b3 a3 20 bf 57 91 61 bd 5a 45 22 bf
       -0.01789577 -0.62749785 -0.055070248 -0.6338707
000100 42 71 c0 bd b1 b3 08 bf 28 e4 35 be d5 49 51 3e
       -0.09396602 -0.5339919 -0.17762816 0.20438321
000110 9e 2b 32 3e d5 d7 52 3d 7e d9 f6 be 35 1a 16 bf
       0.17399451 0.051475365 -0.48212808 -0.5863374
000120 24 10 e9 be 29 82 a9 3f 06 57 b3 3d a6 c1 c4 be
       -0.45520127 1.3242847 0.08756833 -0.38428992
000130 d4 aa 60 3f 5b fb 7a 3d df bb 5c be d9 45 75 3f
       0.87760663 0.061274868 -0.21556042 0.95809704
000140 85 60 81 be 4e d2 64 3f d6 1a 55 bf df 80 71 be
       -0.2526895 0.893834 -0.83244073 -0.23584317
000150 8e 1e 7d be 3a fc 52 bf 54 01 a8 3d 53 46 ac 3f
       -0.24718687 -0.8241612 0.08203378 1.3458961
000160 a7 d2 28 3d b5 dd 2e 3f 0b fe 57 3e 1d 6e cb bf
       0.04121652 0.6830705 0.21093003 -1.5892979
000170 c5 c5 cc be 2a 04 10 bf 17 fd d8 bd 56 fa ef 3e
       -0.39994636 -0.56256354 -0.10595148 0.4687068
000180 a4 b1 91 bf 6f de 2a bf fc b7 bf 3e d1 34 be be
       -1.1382337 -0.66745657 0.37445056 -0.3714967
000190 81 eb 95 3e 92 7b 86 3e 1a d4 74 bf 37 e9 b8 3e
       0.29281238 0.26266152 -0.9563614 0.3611543
0001a0 00 f2 94 3f e3 8f c7 be 19 6d 74 be b4 b1 a8 3f
       1.1636353 -0.38976964 -0.23869742 1.3179231
0001b0 19 2d 46 3f 88 9f eb 3e 26 7e 32 3f 18 c9 3c 3f
       0.77412564 0.4602015 0.6972374 0.73744345
0001c0 ea 19 c0 be 8e 3d 32 3e 05 38 00 3e a9 76 b2 3d
       -0.3751977 0.17406294 0.1252137 0.08714039
0001d0 ab 83 75 be 79 4a 18 bf aa 4d 42 be 68 21 fa 3e
       -0.23976009 -0.59488636 -0.18974939 0.48853612
0001e0 26 f5 42 bf 66 76 87 3f c9 ac c2 3e 6a 68 da be
       -0.76155317 1.0583007 0.3802245 -0.42657787
0001f0 64 24 9b 3f 4d f6 de bc 08 d1 81 be 0d 8a 4d bf
       1.212048 -0.027217055 -0.2535479 -0.80288774
000200 ce 53 c4 bf 11 b2 81 be f7 77 e4 3e cc e8 05 bf
       -1.5338075 -0.25331166 0.44622776 -0.52308345
000210 29 86 11 bf 44 46 fb be a2 50 e1 3e d1 e7 8c be
       -0.5684534 -0.49077046 0.4400683 -0.27520612
000220 2a 4a 93 bf d6 1a 7c bd 67 92 8d be 8d e4 0d be
       -1.1507008 -0.06154903 -0.2765076 -0.13856716
000230 a6 f0 15 3e 87 59 2e bf c9 c7 86 bf fa 2e 85 bf
       0.14642581 -0.6810536 -1.052972 -1.0404961
000240 4b a4 69 3d cf f0 4a bf f3 e1 c1 be 74 db e3 3f
       0.057041448 -0.79273695 -0.37867698 1.7801347
000250 c9 21 91 bd 71 ef 21 be 8a b7 64 3f 4f 58 22 bf
       -0.07086522 -0.15813996 0.8934256 -0.63416
000260 09 e2 1a bf 48 0e 54 bd ee 97 b8 bd 0b 40 eb bc
       -0.6050115 -0.051771432 -0.09013353 -0.028717062
000270 ac d6 a0 3d 3a e9 d5 be 4f 46 0a bf 48 7f 05 bf
       0.078534454 -0.417795 -0.5401353 -0.5214734
000280 c2 d5 dd be 37 ef b6 3f be d2 ee bd 3b a3 8a bf
       -0.43327147 1.4291753 -0.1166129 -1.0831064
000290 1c 64 3d 3f 03 8c 4b bf bd 25 18 be e6 ee bf 3f
       0.7398088 -0.79510516 -0.14858146 1.4994781
0002a0 85 0a 8c bb 8e cd 8d bf ec f1 d1 3f e0 97 34 3f
       -0.004273715 -1.1078355 1.6401954 0.7054424
0002b0 ff dd 96 bf 3b 78 a1 bf 1e ce d7 be 69 3a 69 3c
       -1.1786498 -1.2614816 -0.42149442 0.0142351175
0002c0 c8 ca 81 bf 0d cd d7 be 1b 41 14 be b7 36 8f bf
       -1.0140009 -0.4214863 -0.14477961 -1.1188573
0002d0 ab fe 2f bf 26 e7 82 3f a9 98 1a bf 0a a8 eb 3e
       -0.6874797 1.0226791 -0.6038919 0.4602664
0002e0 7c 20 da 3d fb dd c1 3c 59 65 ee bd 6e da 9c 3e
       0.10650727 0.023665419 -0.11640424 0.306354
0002f0 56 3b 62 bf 2f f7 1d bf d1 f5 80 bf b2 01 d0 be
       -0.8837179 -0.617053 -1.0075017 -0.40626293
000300 57 37 5b bf 6f 32 d7 3d 9f 53 d3 3d ed 8c cf be
       -0.85631317 0.10507666 0.10318684 -0.40537205
000310 62 f1 37 3f e0 64 72 3f 6a 48 8e bf 10 1b ba bf
       0.71852696 0.94685173 -1.1115849 -1.4539509
000320 60 0f a8 3e 84 fb 77 bf 75 03 90 be d9 d7 e2 3c
       0.3282423 -0.9686816 -0.28127638 0.027690815
000330 9e 5b a1 3d 69 8a 60 bf b4 16 c0 bf 73 03 8a 3e
       0.07878803 -0.877112 -1.5006928 0.26955757
000340 ae 9e d6 3d c3 c8 8e be 9b 2a f2 be e4 20 1d 3f
       0.104794845 -0.27887544 -0.4729813 0.6137831
000350 31 ef b2 3e 01 23 2f bf 16 da 75 3e b0 46 02 be
       0.34948114 -0.68412787 0.24008974 -0.12722278
000360 c1 6c 8f 3f 1d 68 5a be cf 76 c8 3d 11 64 16 3e
       1.1205064 -0.21328779 0.09788286 0.1468661
000370 02 c3 f9 be 96 b5 7f bf 7a e7 28 3f f2 e3 90 bf
       -0.48781592 -0.99886453 0.65978205 -1.1319563
000380 93 11 7a bf 6c 28 5a bf 65 35 2a be c2 7a 5b be
       -0.97683066 -0.8521793 -0.16621931 -0.21433547
000390 e2 ac 83 bf 28 cc e6 be 5e 1d 1e 3e 92 06 96 bf
       -1.0287135 -0.45077634 0.1544089 -1.1720755
0003a0 b0 ec 44 3f 7b e4 f6 3c ee 4f fc be ad f0 28 bf
       0.76923656 0.030138245 -0.49279732 -0.6599224
0003b0 85 f2 7f bf 23 30 42 bf 77 6b e6 3e 89 44 dc 3d
       -0.9997943 -0.758547 0.45003864 0.107552595
0003c0 5e bb 20 be f8 d7 f2 3e 32 01 a2 bf 87 ac 57 bf
       -0.15696475 0.47430396 -1.2656615 -0.8424763
0003d0 2e c1 cd be ba 71 a3 be b9 85 3a be f1 9f 44 be
       -0.40186447 -0.31922704 -0.18215074 -0.19201638
0003e0 af 0b a8 bf fc 40 8a be c8 b0 1f 3f 97 79 96 be
       -1.3128566 -0.27002704 0.6237912 -0.2938964
0003f0 6f 6c c3 be fe 3c 7e 3f ce d3 d7 3e a1 78 22 3e
       -0.38168666 0.99311817 0.42153782 0.15866329
