2022_Counterfactuals_pretrained_models/checkpoints_toy_example/classifier.pth (torch, 7763 bytes, 3 tensors)

weight f4 [256, 3]
00000000: 6531 233f 22d3 c63d b923 a63e 918f b9be
00000010: 4aa6 133f 76bd 8abe 28d7 a33e 84da 2ebd
00000020: 37ab c1be 7b44 003f 6b3f 40be 3cc8 923e
00000030: 0c09 7cbe 6c20 a6bd ddbe 1bbf 7666 01bf
00000040: b7c3 f73e e966 b0be 7149 513f 0fc1 0b3f
00000050: 9dd9 3d3e 5191 2cbf 90d0 f13e 0980 76bb
00000060: 2e53 e6be b1d2 cc3e bcd0 9b3e 4ff2 d33e
00000070: 9d70 d7be 89f4 3fbe 1be4 203d 22f6 4f3d
00000080: 65a6 cfbe 54fb bfbe cf03 ac3e 3258 dfbd
00000090: 5333 903e 7594 503d 4da2 353e 98f3 a13e
000000a0: a17a 3c3e fa7a d43e 8de5 2dbf 2120 963e
000000b0: 4c9e fabe 9b18 16bf 945a 2f3e 6ad0 3bbe
000000c0: 40c5 4a3e ee52 c1be 2dfd 1bbf 62cb 0e3f
000000d0: 4b57 7bbd a81b cd3e ebf6 543e 8367 e0be
000000e0: 6479 fb3d 6cfc aabd 5d39 7cbe c070 dcbe
000000f0: e955 8d3e d69d 0a3e 9ac6 4bbe 7899 debe
00000100: ef69 1a3f b92d babe f18d cd3e e3bc 8d3e
00000110: a0b4 a9be 23c3 0fbf 47f4 0d3f 7891 babc
00000120: 454c 033f b53d a13e a236 853e de4a 543e
00000130: 3519 013f 928a 06bf 57e0 093d c3c2 e63e
00000140: 4e43 c83e 1de5 803e f4de dbbe 62e6 f9be
00000150: 4d01 b7be aaeb b83d 5f7e 0f3f 2cb8 a4be
00000160: 133d a03e 8f8f 94be c916 dcbe 72f8 20be
00000170: 0ac6 d03e 66b7 243f 7e22 afbe 40ce 483e
00000180: 80ae f33e e2ba cd3e e782 ad3e a164 bf3e
00000190: 444e a63e 2025 ea3d e8b3 b5be 609a edbe
000001a0: e9be 71be 9bbe ea3d 7853 afbe c0fa ae3e
000001b0: a41f fb3d f6d0 28be 1ae7 403e f585 d93e
000001c0: ec18 0b3f a9c7 0e3f 5dc7 edbe f6f3 373f
000001d0: 1f2d aabe 4e8f 1bbe a382 10bf 80cc f3be
000001e0: 6135 3bbe 6dbe 32be 0c00 fe3e d4f8 d1bd
000001f0: 179b f6be a0b4 8b3e 880a 543e e98d a63e
00000200: 3eb1 b0be 6a04 6dbd 1d53 fdbd bb08 7fbe
00000210: b590 12bf db44 20be 7410 7dbe 5304 c73e
00000220: 6645 9a3d 30a1 6a3e 6229 3d3f 47f0 3f3f
00000230: 3b36 f93e e37c d83d 639a d2be e917 023f
00000240: b3d3 cfbd ba60 c6bc b600 efbe c5c8 cdbc
00000250: d47c c4be 40af 163f be1f 14bf e439 fcbe
00000260: a156 92bd 5b74 00bf 2519 623e ffd3 a6be
00000270: afed 98be c60e 6a3d 2eaa c93e 6aa4 a6be
00000280: a747 533e c5ec de3e cb71 333f cd2d dbbe
00000290: 4042 793e 9b50 c6be 7d1a df3e fb43 40be
000002a0: 3af6 c23e e4f2 c43c 9891 30bd a9d0 93bd
000002b0: e533 583d c1ef 733e a348 89bd af1a b43e
000002c0: 6765 1dbf 4729 1b3f 96a5 f63e 2f99 193f
000002d0: 1668 f13e 939e c9be e27f 3dbe a74c 213f
000002e0: a340 7dbe 7a83 173f 85c0 c4be 3a97 e6be
000002f0: dc6c a73e 92fa a7be 9481 3cbe fe30 f23e
00000300: 496e 2c3f c70d 143f 8f88 2c3d 79b3 21bf
00000310: 3d62 fe3e a8e2 80be 83ac abbe db7a 233e
00000320: ec3e efbe c6f9 4d3e 985a a53e 3e0f 11bf
00000330: db5c 15bf 7ea7 c0ba 4ef3 3e3e 01a3 3a3e
00000340: a7c7 02be 5e32 da3d 6cc3 02bf 64cb cbbe
00000350: 29df b8be 5ad1 2d3f 8cf8 163f a359 65bd
00000360: 6920 d43c 23d5 833e 75ac 8d3d 8ed4 22be
00000370: 8290 993e 294f de3e a6ab 87bd 0b74 4ebd
00000380: ac11 003f 7657 253f f34e 7bbe eb8b 2b3f
00000390: 1fb1 603e dd4a d2be afa7 bb3e b1dc fcbe
000003a0: fca1 253f e238 c3be 3142 a03e 0b98 403e
000003b0: 3055 4d3e f6c3 123f 5feb 4fbe 5438 40be
000003c0: 28bf 23bf 80ea c0bc 4bfb b4be cc32 d73d
000003d0: 110f 25be c779 763e a92e 233f b65d 643e
000003e0: b091 c4bd cfd5 92bd 5bd3 b7be acd3 213f
000003f0: 4124 bbbe 5df2 d03d 0f7a 4bbe 88fe 75be
0.63747245 0.09708239 0.3244913 -0.36242345 0.5767561 -0.27097672 0.3200009 -0.04268886
-0.3782594 0.5010449 -0.18774192 0.28668392 -0.24612826 -0.08111653 -0.6083811 -0.5054697
0.48391506 -0.34453514 0.8175269 0.5459146 0.18540044 -0.67409235 0.47229433 -0.0037612936
-0.44985336 0.40004495 0.3043269 0.41395804 -0.42078105 -0.18745627 0.03928004 0.05077184
-0.40556636 -0.37496436 0.33596656 -0.10905494 0.28164157 0.05092283 0.17737694 0.3163116
0.18406154 0.41500074 -0.6792839 0.29321387 -0.48948896 -0.58631295 0.17124397 -0.18341222
0.19801807 -0.37758583 -0.6093319 0.5577909 -0.061362546 0.40060163 0.20797317 -0.43828973
0.12279013 -0.08348927 -0.24631257 -0.4305477 0.27604607 0.13536772 -0.19899979 -0.43476462
0.6031789 -0.3636301 0.40147355 0.27683172 -0.33145618 -0.5615713 0.5545086 -0.022774443
0.51288253 0.3149239 0.26018244 0.20731685 0.5042909 -0.5255519 0.033661213 0.45070466
0.3911385 0.251748 -0.42943537 -0.4880858 -0.3574318 0.09029324 0.560522 -0.32171762
0.31296596 -0.29015777 -0.42986134 -0.15719774 0.40776092 0.64342344 -0.34206003 0.19609928
0.4759407 0.40181643 0.33888933 0.3738146 0.32481587 0.11432862 -0.3548882 -0.4640684
-0.23607983 0.11462136 -0.3424337 0.34175682 0.12261894 -0.16485962 0.18838158 0.42485014
0.543349 0.5577341 -0.46441165 0.7185663 -0.3323755 -0.15191385 -0.56449336 -0.4761696
-0.18282081 -0.17455454 0.4960941 -0.10252538 -0.481652 0.27286243 0.20707142 0.32530144
-0.34510225 -0.057865538 -0.12369368 -0.24905674 -0.57252055 -0.15651266 -0.24713308 0.38870487
0.07532768 0.2291305 0.7389127 0.7497601 0.48674187 0.10570695 -0.41133413 0.50817734
-0.101478 -0.024216045 -0.4668023 -0.025120148 -0.38376486 0.5886116 -0.57860935 -0.49262917
-0.071454294 -0.50177544 0.22079904 -0.32583615 -0.29868838 0.057142995 0.3938765 -0.32547313
0.20632802 0.43540016 0.7009551 -0.4280838 0.24341679 -0.38733372 0.43574896 -0.18775932
0.3807848 0.0240416 -0.0431076 -0.07217533 0.052783865 0.23821928 -0.067033075 0.35176608
-0.6148285 0.6060986 0.48173207 0.59999365 0.47149724 -0.39378795 -0.18505815 0.6300759
-0.24731688 0.5918499 -0.3842813 -0.45037252 0.3270024 -0.32808357 -0.18408805 0.47303003
0.6735578 0.5783352 0.04212242 -0.6316448 0.49684325 -0.25172925 -0.33530053 0.15964834
-0.46727693 0.20114812 0.3229568 -0.5666388 -0.5834481 -0.0014698354 0.18647501 0.18226244
-0.12771474 0.10654138 -0.5107944 -0.39803612 -0.36107758 0.6789757 0.58973 -0.055993687
0.02589436 0.25748548 0.06917659 -0.15901396 0.29993063 0.4341977 -0.06624536 -0.050403636
0.50026965 0.6458658 -0.24541835 0.6701037 0.21942566 -0.4107274 0.3665137 -0.49387124
0.64700294 -0.38129336 0.313005 0.18808 0.20052028 0.5733026 -0.2030463 -0.18771487
-0.63963556 -0.023549318 -0.3534797 0.105077356 -0.16119029 0.24069892 0.6374307 0.22301373
-0.095981 -0.07169687 -0.3590344 0.6321361 -0.36551097 0.10202477 -0.1987078 -0.24022877

bias f4 [256]
00000000: 6e8d e8bd dffc 8cbd 6741 263e 8c94 183f
00000010: b9b6 eebe 363b f8bd 3937 783e 0aa6 1abe
00000020: 8d0a 3c3e 845f d2bd 585d 45be e17b 913e
00000030: 058f ca3e 4235 233f 3a93 ab3e 85e5 ad3d
00000040: 0087 0e3f 2e85 083f 70a1 8fbe 4f73 d63e
00000050: a951 213d 8214 b5bd 7151 2cbe 56e4 0abe
00000060: 5a4a 83be cb99 dfbd faf0 2b3e e17b ff3e
00000070: 5798 d63c b124 18bf 71d2 b63e dc31 abbd
00000080: 5645 fc3e 351b 18bf 7fe7 2abe 8e4a 113f
00000090: 45be 503e 78a0 04be 47d1 a5be 6b04 eb3d
000000a0: 7ac7 9c3e c116 dabe 8a94 debe a5f7 373e
000000b0: adfc 2abc cd39 e03e a41f dabe 4b9a afbc
000000c0: ab8b f6be 06c0 47bc 2d47 5dbe d2c7 7e3e
000000d0: 34dd 01bf 8e97 c5be c0b6 53be de80 0cbf
000000e0: 9281 c33e 1197 03be 17db 32be 9f02 003f
000000f0: cbcd 17be db6d db3e f7d5 06be 7491 dabe
00000100: 06bb 793e 4a75 df3e 4043 f5be e0e4 da3d
00000110: 7d35 3f3e d577 823e 59f0 27bd 2ae3 4bbd
00000120: ca7c e5be 4591 1c3e 6a0d d4be 5b30 b1be
00000130: 98ce 00be 4151 bdbe c213 573e d7ca cc3e
00000140: 2e08 053f 4032 9bbe dd33 a43e 172b 0e3f
00000150: fd68 473e fc8d 893e de38 d03e f962 063f
00000160: b7f5 df3e 053d a53e ac38 d4bd 4020 7cbe
00000170: e845 98be cf17 e63e ed4b dabd c229 093e
00000180: 89cd 10bf 6787 533d b065 22be 4d84 60be
00000190: 3d4a dd3e 29f4 f9be 9015 d6bd 91ca cc3d
000001a0: 9af8 08bf faa2 a93e 44b7 50be 44bb a93e
000001b0: 62cd 983e cd87 f03e 564b 5c3d 8ac9 d13e
000001c0: e83d 193f 76c1 4d3e 5ab2 d43d 81cf 52bd
000001d0: 34a5 1d3e d56d 3f3e f46e 0bbf 70fb fc3e
000001e0: 8008 4e3d 7870 f6be 8b7e 323e 2a15 d03e
000001f0: 288e c73e c44a e83e 408d 9d3c 85fd febe
00000200: c759 4e3b 5b33 073f d309 6dbe 31e3 653e
00000210: 65a7 883e 6db5 0a3d 77f6 df3d fb25 c13e
00000220: 0f7e d5be be32 e53e 7d2e ef3e 8017 c93e
00000230: 07d5 213f 5f33 80bd 939e d5be dc52 863c
00000240: f3d1 15be 5719 323e bf89 093f e851 16be
00000250: 32bc eabb e5f6 193f 77e3 00bf fe58 2dbd
00000260: 6167 023f 75f6 f63e 6491 1f3e 8f40 8bbe
00000270: 286c b2bd 0402 a6be 047d 0dbf 9498 f5be
00000280: bc73 2c3f c6be 113f fc83 a43e a9e0 9dbd
00000290: 2ccb 093f 171d 11be 1247 f53e 5d81 823d
000002a0: e61f 5bbe 454e 3bbe 68f1 0cbe 5123 0dbf
000002b0: 8932 203e 3895 c6bd ce31 6d3e 5b0a ec3e
000002c0: d3f0 063d 3ded c13e e0c4 683e 7674 f83e
000002d0: dc4a 93be 92f2 e6bc c20b 21bd 6a2f f53e
000002e0: 68aa 04bf b26c a7be 3fda 283e 495e 133f
000002f0: 94bc b83e f55b f8be 8572 c2be e320 143f
00000300: 8d45 163e 15a9 06bf 8138 44bd 695a 9e3e
00000310: 042a e13c 638e 87be 9397 8abe e548 93be
00000320: 9493 ac3d 08e5 bb3e 620f 933e 3db5 9cbe
00000330: 3f9a 0ebe 5653 bbbe 116f c73e b243 273f
00000340: f523 1f3f bf5d ba3e 15b5 63bd 6c08 0c3e
00000350: 8429 4d3e ccb8 05bf ccbe 813c db74 d6be
00000360: b827 1abf 47ff f33d 2d8b 56be fde4 98be
00000370: 8ef3 8b3e a123 063e 8fd8 623e 3609 32be
00000380: 47e4 15bf e527 fd3d 3fca 87be 3565 a8bd
00000390: c8c7 0c3f 436f 303e 9809 b83e 9f63 76bd
000003a0: 4d98 d0be 5b3e 4e3e 7816 8dbe 9dba fa3d
000003b0: ae0e f4be 4e8f 013f f59b 93be 32d5 f73e
000003c0: 0315 e83e 4342 103f 8f86 063f 7732 913e
000003d0: 0c06 803d 69ed 823d 5f3b 6fbe 6f74 0bbf
000003e0: 6075 0b3f bc74 5f3b fad6 903e a34b 5e3d
000003f0: 0ce4 8e3e b4a8 9fbe b219 aebe 4b47 113f
-0.113551006 -0.06884169 0.16235887 0.59601665 -0.4662378 -0.121206686 0.24239816 -0.15102401
0.183634 -0.102721244 -0.19273889 0.28414825 0.3956224 0.6375314 0.33510762 0.08491043
0.55674744 0.53328216 -0.28052855 0.41884848 0.039384518 -0.08841802 -0.16827942 -0.13563666
-0.25642663 -0.109180056 0.16791144 0.498992 0.026195688 -0.59430987 0.3570743 -0.08359119
0.4927165 -0.59416515 -0.16689871 0.56754386 0.20385082 -0.12951839 -0.32386228 0.11475452
0.3062094 -0.42595485 -0.434727 0.17965563 -0.010436219 0.43794098 -0.42602265 -0.021435877
-0.48153433 -0.012191778 -0.21609183 0.24880913 -0.50728154 -0.3859219 -0.20675182 -0.54884136
0.38184792 -0.12850596 -0.17466389 0.50004 -0.14824598 0.4285725 -0.13167559 -0.42689097
0.2438775 0.43644172 -0.4790287 0.10688186 0.18672748 0.2548205 -0.041000698 -0.049777187
-0.4482177 0.15289791 -0.41416484 -0.34607205 -0.1257881 -0.36976054 0.21003631 0.39998505
0.51965606 -0.30311775 0.3207082 0.555345 0.19473644 0.26866138 0.40668386 0.5249477
0.43742153 0.32273117 -0.10362372 -0.24621677 -0.29740834 0.4494004 -0.10659013 0.13394836
-0.5656362 0.0516428 -0.15859103 -0.21925469 0.43220702 -0.48819092 -0.104533315 0.09999574
-0.53504336 0.33132154 -0.2038241 0.33150685 0.29844195 0.46978608 0.053782783 0.40974075
0.59860086 0.2009333 0.1038558 -0.051467422 0.15395051 0.18694241 -0.54466176 0.49410582
0.050301075 -0.48132682 0.17431085 0.40641147 0.38975644 0.45369542 0.019232392 -0.49802795
0.0031486617 0.5281274 -0.23148279 0.22449948 0.26690212 0.033864427 0.10935681 0.3772429
-0.41697738 0.44765276 0.46715155 0.39275742 0.6321568 -0.06259798 -0.41722545 0.016396932
-0.1463087 0.17392479 0.5372581 -0.14679682 -0.007163548 0.60142356 -0.50347084 -0.042321198
0.50938994 0.48234907 0.15582806 -0.27197692 -0.087120354 -0.32423413 -0.55268884 -0.4796797
0.67364097 0.5693172 0.32131946 -0.07708866 0.5382564 -0.14171253 0.47905785 0.0637233
-0.21398887 -0.18291576 -0.13763964 -0.55132014 0.15644278 -0.0969643 0.2316353 0.4610165
0.03294451 0.3787631 0.22731352 0.48526353 -0.2876805 -0.028191838 -0.039317854 0.47887737
-0.5182252 -0.32700115 0.16489504 0.5756574 0.36081374 -0.48507658 -0.37977996 0.5786268
0.14674969 -0.5260175 -0.04790545 0.30928352 0.027485855 -0.2647582 -0.27068767 -0.28766552
0.08426586 0.36698174 0.28722674 -0.30607024 -0.13926028 -0.36587018 0.38951924 0.6533767
0.6216424 0.36399648 -0.055592615 0.13675088 0.20035368 -0.522351 0.01583805 -0.4188603
-0.60216856 0.11913925 -0.20951529 -0.29862204 0.27334255 0.13099529 0.22152923 -0.17386326
-0.5855145 0.12361125 -0.2652149 -0.08222429 0.5499234 0.17229943 0.3594482 -0.0601536
-0.40741196 0.20140974 -0.27556205 0.12242625 -0.4766745 0.5060929 -0.28829923 0.48404843
0.4532853 0.5635111 0.5254907 0.28358814 0.06251153 0.06392939 -0.23362492 -0.5447454
0.54475975 0.0034096679 0.28289014 0.05427135 0.2790836 -0.31183398 -0.3400398 0.5674941

weight f4 [1, 256]
00000000: 94d9 b23d bdd7 86bd 501a d9bd 7089 a23d
00000010: 5da9 d1bd 8028 33be 0ba5 023e e224 89be
00000020: d805 16bd c88b 53bd bd28 7f3c 74d8 91bc
00000030: e28e ce3c 4509 733d fc99 06be f692 1cbe
00000040: fbeb 90bd 4b53 063e 3e51 a23c 4a1b 74bd
00000050: fa2c 033d 7079 31be f8c2 c43c 2a06 a2bd
00000060: 1c0f 223e 5e51 82bd 3671 2d3c ad59 d4bd
00000070: 3735 4f3c 44ae 1d3c d1d0 923d c027 933d
00000080: 0c10 ad3c a1e8 81bc 2b9a 413c 9351 6f3d
00000090: 23e4 04bc 7c0e be3d 04da 7abe d985 35bd
000000a0: 5e20 9f3d e99e 803d 553d b4bd b6d6 6abd
000000b0: 5237 b4bd 16f3 f53d a6a7 183e 6435 9c3d
000000c0: 0c28 a53c a11f 933d 8e8e 03be 080f 8dbd
000000d0: 4804 48bc 1856 3e3d 6375 653d 512e a1bb
000000e0: 3926 993d 3ba6 c4bc 0c51 afbd 0308 b23d
000000f0: 72dd 733c 4d25 e53d 46c4 ad3d 7c0d 683d
00000100: 3e73 063e b41e e4bd f3e2 b0bd a808 3fbd
00000110: be4c 8cbd 3e86 1b3e 5395 72bb dc62 733e
00000120: 5a54 7cbd 4e93 e73d dee8 8ebb 6a4c 2b3d
00000130: 3684 cb3d d07f 83bd 1b31 7a3d 2285 6c3d
00000140: cd56 0bbe 071e c03d 7f30 4a3e 7bc3 543d
00000150: d65f 5bbe e61f 003d e1b7 cebd a473 b7bd
00000160: d4c6 8f3d 6bc7 fcbd 64e5 54be b2e3 05bd
00000170: 2117 17bc 006e b5bc 9573 dabd 10d3 d9bd
00000180: 57fc e23c 823a 87bd e79e e43c ae22 c6bd
00000190: 9c05 a1bd 2ec5 daba 5938 4dbd 3a99 bdbd
000001a0: 6452 053c 9682 bb3c a3cc c13c 0da8 313e
000001b0: 8cd3 89bc f9dd 10be 9adb 203d 3a6b 89ba
000001c0: 7f4b c43d dbfc 133d 654f 0bbe f74e 20be
000001d0: 1d06 a63d 78dd ff3c 08f0 19bc 1bcf 1bbe
000001e0: 84b9 1f3b 50da d13d 8742 23bc e53b 1dbd
000001f0: d487 3c3e fb0c 09bc 59af 0bbd 6263 273a
00000200: 81bf b8bd 293a ae3d f9d2 bf3d e1e8 86bc
00000210: 2990 ad3d 18ef 37be 85dc 86bd c398 d23d
00000220: ffa5 5c3c c75f a1bd 9cf2 643d eb1c c53d
00000230: 0a16 963d 2e64 d9bb 4c72 c63c 8077 1fbc
00000240: ff00 bbbc d129 29bc cce9 98bd fdf1 a2bd
00000250: cec9 d8bb 7a7a e9bd 21fd a13d 30af b33d
00000260: 853d fc3a 36c8 86bd c829 04bd aa93 67bb
00000270: 7203 a83c b818 5dbe 62aa 70bc 161b b7bd
00000280: 319c a0bd 8476 c2bd 541c 8dbd b190 debd
00000290: c691 a53d d0b9 7f3d 5c6c 183d ebe5 ee3c
000002a0: 793c 80bd aa40 d7ba dd89 52bd 964c 853c
000002b0: d8f2 9c3c 9fd5 16be 66b0 4cba f390 b5bd
000002c0: 7923 a5bd d558 02be e2d8 75bd ae30 e0bd
000002d0: 9579 693d 7e5b 5fbe 226b 713e abcb c0bc
000002e0: a89c b9bc b8b6 d83c 9704 3d3e 9b65 cf3d
000002f0: b7a1 373c d2cd 94bd 3787 e33d 7615 503d
00000300: 9b97 fa3d 3eeb ddbb e8b0 243e 8b59 fa3d
00000310: c47e 2b3e 6af2 4c3d bc88 f93d e670 b8bc
00000320: 4001 fbbc 1cd4 afbd 03e0 4a3d aedd 1fba
00000330: 1bdf 8c3c 67c1 3bbd 461c 153b f24b 033e
00000340: 34ab f7bd 4f85 c8bd 2d4c 60bd 3a19 03be
00000350: 0e30 50bd ae90 dd3a 37d9 113c 5e72 8bbd
00000360: 670b 6cbc 9545 dfbd 825b b13b 0542 a7bd
00000370: a762 8f3d dede 2cbd 4905 11be bbc9 993d
00000380: 3169 b23b a3a7 b6bd d972 843b 4b1d 0ebd
00000390: ca7a bc3d d2e5 703d 4bc6 073e babe a83d
000003a0: 4a63 a93d ab94 93bd f528 2cbd 96f4 ba3d
000003b0: 291e f2bc 843c 183e 70b4 333e 875e b43b
000003c0: 7555 44bd f436 8ebd 7c36 f73d 3249 b63d
000003d0: 1282 7abd 5c08 893d f582 9d3c ddda 1dbc
000003e0: 08f5 dcbd cfc4 0b3b 0f5f 943c 16ae c3bd
000003f0: af14 9b3d dcbb 193e 4718 563d a835 9c3d
0.08732906 -0.065841176 -0.10600722 0.079363704 -0.102373816 -0.17495918 0.12758271 -0.26785952
-0.036626667 -0.051646978 0.015573678 -0.017803408 0.025214616 0.059335012 -0.13144678 -0.15290436
-0.0707626 0.13117711 0.01981413 -0.059596337 0.032025315 -0.17331481 0.02401875 -0.07911332
0.15826076 -0.06363176 0.010586074 -0.10368667 0.012646965 0.009624068 0.07168735 0.07185316
0.021125816 -0.015857996 0.011816542 0.058427405 -0.008111033 0.092801064 -0.24497229 -0.0443171
0.077698454 0.0628031 -0.08800761 -0.05733367 -0.08799614 0.120092556 0.14907703 0.07627371
0.020160697 0.07183767 -0.12847349 -0.068876326 -0.012208052 0.046468824 0.05602015 -0.0049188514
0.074779935 -0.024005046 -0.0856038 0.08692934 0.01488434 0.11188755 0.08484702 0.056653485
0.13129899 -0.11138669 -0.08637037 -0.046639115 -0.06850575 0.15187928 -0.0037015274 0.2376818
-0.06160388 0.11307393 -0.004361256 0.04182092 0.099373266 -0.06420863 0.061081987 0.057744153
-0.1360733 0.09380727 0.19745062 0.051944237 -0.21423277 0.03128042 -0.10093666 -0.089576036
0.07020345 -0.123427235 -0.2079063 -0.03268785 -0.009221823 -0.022147179 -0.10666577 -0.1063596
0.027708216 -0.06602956 0.027907802 -0.096745834 -0.07862398 -0.0016690844 -0.050102565 -0.09257741
0.008137319 0.022889417 0.023657149 0.17349263 -0.016824506 -0.14147176 0.03927193 -0.0010484227
0.09584712 0.036129814 -0.13604505 -0.15655123 0.08106635 0.031233534 -0.009395607 -0.15215723
0.002437205 0.10246718 -0.009964592 -0.038387198 0.1841119 -0.008364911 -0.03410277 0.00063853536
-0.090209015 0.08507187 0.09366412 -0.016468467 0.08474762 -0.17962301 -0.065850295 0.10283043
0.013467311 -0.07879596 0.055895433 0.09624656 0.07328422 -0.006634257 0.024224423 -0.009733081
-0.022827623 -0.010324911 -0.07466468 -0.07956312 -0.006615854 -0.11400314 0.07909609 0.08773649
0.0019244408 -0.06581156 -0.03226641 -0.0035335817 0.020509455 -0.2159146 -0.01468906 -0.08940713
-0.07842291 -0.09495261 -0.06890169 -0.108674414 0.08084445 0.062433064 0.037212715 0.029162368
-0.06261534 -0.001642247 -0.051401008 0.01627187 0.019158766 -0.14729927 -0.0007808268 -0.088655375
-0.080634065 -0.12729199 -0.06002129 -0.10946785 0.057000715 -0.21812245 0.23576024 -0.023534616
-0.022657707 0.026454315 0.18458782 0.101268016 0.011207989 -0.072658196 0.111097746 0.050801717
0.12235948 -0.006772428 0.1608311 0.1222411 0.16747576 0.05003587 0.12184283 -0.022514772
-0.030640244 -0.085853785 0.04953004 -0.00060984015 0.017196229 -0.04583874 0.0022752448 0.1282194
-0.12093201 -0.097910516 -0.054760147 -0.12802592 -0.05082708 0.001690408 0.008901886 -0.06808923
-0.014407015 -0.109019436 0.00541252 -0.08166889 0.07001238 -0.04220473 -0.14162172 0.0750918
0.0054446687 -0.08918693 0.004042011 -0.034695905 0.09203108 0.058812924 0.13259237 0.08239503
0.08270891 -0.072060905 -0.042031247 0.09128682 -0.029555397 0.14866835 0.175493 0.0055044326
-0.04793306 -0.06944075 0.12070939 0.0890068 -0.0611592 0.066910475 0.019227484 -0.009634701
-0.107889235 0.0021327024 0.018111734 -0.09554689 0.075723045 0.15013069 0.052269246 0.076274216
